results/model.pth (torch, 547747 bytes, 18 tensors)

layer1.0.weight f4 [16, 1, 4, 4]
00000000: 027e 033e 42f3 e2bd 30f6 47bd fad1 ef3d
00000010: 0454 71be 1f37 193e 1298 53bd 7304 023e
00000020: e598 0e3d 9095 fbbc be24 8e3d ccfa 493c
00000030: 9e4b bb3d cf31 c7bd 15b4 93bc 0e2d b8bc
00000040: fcd6 133d d2e8 7fba 38d5 5f3e a86f 9f3d
00000050: c4c1 bebd b099 1abe e5c3 2bbd 2afb dcbd
00000060: 4522 a4bd c86b 443c 4998 183e 2f21 0b3e
00000070: 5227 7abe a3c3 1e3e d710 8f3d 74c8 723e
00000080: de07 293e a218 69be 954d 73be 27fd f6bd
00000090: 2ff2 603e 08f4 29bd 892e db3d 9912 eebd
000000a0: 6165 7b3e f670 d8bd 20d8 3f3e d360 373b
000000b0: 69b7 06be c5a4 033e 1d0d 08be cb15 963d
000000c0: 706b 93bd c483 dfbc 111a 76be 5beb f3bd
000000d0: 6813 0b3e 2bb9 78bd 95f6 7e3e cf35 4d3e
000000e0: 42d8 40bc 31ec 2abe bed8 1b3e 170d 9f3d
000000f0: e499 25be dd2d 263e fd5d 1b3e 2726 633e
00000100: 71c1 0fbe 4cc2 28bd 5c2e 99bb 2f85 163d
00000110: 8f69 42be 0daf 35be e045 0b3e 4ff2 6fbd
00000120: 3a94 f93d 19e1 683c f7c4 a73d d13a 603d
00000130: a3da b93d 80f3 fd3d 210c 6dbe c9e0 003e
00000140: cf3a 34be a03c 41be 789d 7b3c 2a5a 2dbd
00000150: ed7c 163e 1617 14be bd5a 63be 97c5 3a3e
00000160: d5de 15bd be6c 103e b6af a53d 5d67 3fbe
00000170: f972 503d 7917 783d 01ea 2abe f50c f2bd
00000180: 409d ae3d 0199 373d 54b2 d9bd c9a1 9abd
00000190: db80 6a3e f53b 3dbd 9c57 103e c312 de3d
000001a0: d66f 25be 75b3 59be 5bbd 753e 3654 573c
000001b0: c87b 2f3e cb13 543d f487 a43d 303a 3f3e
000001c0: 1d72 723e 3e1b 2abe 3c11 fe3c 3fa7 3e3e
000001d0: c003 393e 13b3 1e3e 6899 39be 52c1 38be
000001e0: fc64 1bbe 0e3c fe3c c3d2 7e3e d817 22be
000001f0: 66d5 073e 1f0d 0ebe a8e7 70be 1fd1 5abd
00000200: 377c 133e a8a1 6d3e 08f6 1ebe a769 5e3d
00000210: e2e7 5c3e e8a4 293e 0a8f 1f3e 34f0 353e
00000220: f1f2 213e cd3c 843d 3b11 2fbe fa0f 57be
00000230: 4889 eabd cb7a eebc b6d8 1cbe 3938 bb3d
00000240: 8c91 9f3d 2e4b 66bd f106 c53d b54f a53d
00000250: 2daa 1c3e 2cc5 2c3e ed43 adbd c1f5 793e
00000260: a73c eabc 82a3 05bc 217d 71be 38e6 24be
00000270: da47 15be 3a40 dabd 8804 363e 2462 a7bd
00000280: 977c 3fbe 6e8d c43d 15b5 a33d 05ca 253e
00000290: 9da0 04be 7c55 5d3d 3a71 babd 1ddc 65bd
000002a0: 630d 4cbe 7e67 e9bd 7bc7 9cbd 9ee3 da3d
000002b0: 76b5 3a3d 6f79 7c3d ac7f 7f3e ee80 793e
000002c0: 56b3 2e3e 6dc2 023c 3e3a 31be fcf2 473e
000002d0: 1b55 7fbd 0798 a3bc 2585 5cbe 2eac 4abd
000002e0: 1bc5 24be 9e90 6b3e 313c 5dbe 1fa0 47be
000002f0: fa88 05bc 413f 0abe 9e16 b73d 274b c5bd
00000300: e47d f0bd 8cb2 683c ef58 393e 2e1a 34be
00000310: 4862 f03d 235d 243e 7645 7a3e f868 33be
00000320: 28b8 773d f968 3dbe f157 5a3e 5f54 c7bd
00000330: 9528 1a3e f46c f23b 421a a1bc cbdd 06bc
00000340: 9808 2e3d 8a8a f13d f282 243d a936 9c3d
00000350: b55f 66be aa87 3a3e b334 5f3e 4594 533e
00000360: 4836 3d3e 4f9e 38be 278d bdbd 89b6 613e
00000370: 2eed 42be 3d55 683e 1f3f 49be 8760 34be
00000380: ef91 fa3d 89d0 37be e9e0 69bd e57d 3a3e
00000390: 6ec0 4a3e e32a 723e 4e6f 4fbd cfd2 46be
000003a0: c606 7c3e c6fd 59bd cc9d d2bd 60a5 793d
000003b0: ca10 33be 4542 283e 3375 203e f620 4bbe
000003c0: a28f 52be 9d0e b6bc f117 d63d 05b6 f9bb
000003d0: 8add 01be 01f2 b63b cad5 70be 2a36 35be
000003e0: 2da8 2abe 557b 523e 5833 613e b1aa aebd
000003f0: fa7a 313c 089c e33d 0fea f23c 4455 00be
0.12841037 -0.11081554 -0.048818767 0.11709972 -0.23567206 0.14962433 -0.051658697 0.1269701
0.03481378 -0.030710965 0.06940602 0.012327861 0.09145282 -0.09726297 -0.018030206 -0.022482421
0.036093697 -0.0009762171 0.2185868 0.077849686 -0.093143016 -0.1509769 -0.041934866 -0.10790093
-0.08014349 0.011988588 0.14901842 0.13586877 -0.24429062 0.15504317 0.06985634 0.2370928
0.16506907 -0.22763303 -0.23760064 -0.12060004 0.21967386 -0.041492492 0.10702235 -0.11624641
0.24550392 -0.105684206 0.18734789 0.0027981296 -0.13155903 0.12855823 -0.13286252 0.073283754
-0.071982265 -0.02728451 -0.24033381 -0.11910125 0.13581622 -0.060723465 0.24898751 0.20040058
-0.01177031 -0.16691662 0.152194 0.077661686 -0.16171986 0.16228433 0.15172572 0.22182523
-0.14038636 -0.04120092 -0.004674716 0.036748108 -0.1898558 -0.17742558 0.13600874 -0.058580693
0.12186475 0.014213824 0.08191865 0.05474359 0.09074905 0.123999596 -0.23149158 0.12585749
-0.17600559 -0.18870783 0.015357368 -0.042322315 0.14696093 -0.14461932 -0.22202583 0.18239437
-0.036589462 0.14103982 0.08090155 -0.18691774 0.050890896 0.06056926 -0.16690828 -0.118188776
0.08526087 0.04482365 -0.106297165 -0.07550389 0.22900717 -0.046199758 0.1409592 0.10843422
-0.16155943 -0.21259864 0.23998015 0.013142636 0.17137063 0.05177669 0.080337435 0.1867454
0.23676343 -0.16611955 0.031014077 0.18618487 0.18067837 0.15497999 -0.18124926 -0.18042496
-0.15175241 0.031034496 0.24885087 -0.15829408 0.13264999 -0.13872193 -0.2352587 -0.05342209
0.14402853 0.23206198 -0.15523541 0.054299977 0.21572831 0.16566813 0.15581909 0.17767411
0.15815331 0.06456909 -0.17096417 -0.21002188 -0.114519656 -0.029111287 -0.15317044 0.09141583
0.07791433 -0.05622404 0.096204646 0.080718435 0.15299292 0.1687209 -0.084602214 0.24410154
-0.028593374 -0.008156659 -0.23582889 -0.16103446 -0.1457819 -0.106567815 0.17775166 -0.08173016
-0.18699871 0.09597288 0.07993523 0.16190346 -0.12951894 0.054036602 -0.091036275 -0.05611812
-0.19926982 -0.11396693 -0.076552354 0.10687946 0.04558321 0.061639246 0.24951047 0.24365589
0.17060599 0.007980925 -0.17307374 0.19526285 -0.062337022 -0.019969953 -0.21535166 -0.04948061
-0.16090815 0.23004386 -0.21604992 -0.19494675 -0.008150334 -0.13500692 0.08939861 -0.09633475
-0.11742762 0.014202725 0.18100332 -0.17588112 0.11737496 0.16051154 0.2444056 -0.17520511
0.06047836 -0.18497075 0.2132261 -0.097328894 0.15054543 0.007398242 -0.019665841 -0.0082315905
0.042488664 0.11794002 0.04016394 0.07627613 -0.22497447 0.18215814 0.21797447 0.20662029
0.18477738 -0.1802914 -0.09255438 0.22042288 -0.1903579 0.22688766 -0.19652985 -0.17614947
0.12234866 -0.17950644 -0.057099257 0.18212087 0.19799969 0.23649172 -0.050643258 -0.19416355
0.24611959 -0.053220533 -0.102840036 0.06094873 -0.17486873 0.1643153 0.15669708 -0.19836792
-0.20562604 -0.022223765 0.10453785 -0.0076205754 -0.12682167 0.0055830483 -0.23519054 -0.17696443
-0.16665716 0.2055486 0.21992242 -0.085286506 0.010832543 0.11113745 0.029652623 -0.12532526

layer1.0.bias f4 [16]
00000000: ec9d 133e f262 1d3e a8dc 6cbc e827 fcbc
00000010: 61a4 683e 37cd 5f3e 9125 11be 2a7b 7a3e
00000020: 9e59 7d3d 1d0f 2abe 7218 0c3e af1d 3fbe
00000030: 8c84 6c3e 3699 24be fdcc 903d c5e9 9b3d
0.14415711 0.15369776 -0.014456905 -0.030780748 0.22718956 0.21855627 -0.14174487 0.24461046
0.061853044 -0.16607328 0.136812 -0.18663667 0.23097438 -0.1607407 0.070703484 0.076129474

bn1.weight f4 [16]
00000000: 7ff8 7f3f 2bff 7f3f 2700 803f 2403 803f
00000010: 76fc 7f3f 40f8 7f3f 0c09 803f 35fd 7f3f
00000020: 71f7 7f3f 92fa 7f3f 8c00 803f b000 803f
00000030: bd00 803f 5202 803f f502 803f 95fa 7f3f
0.9998855 0.9999873 1.0000046 1.0000958 0.999946 0.99988174 1.0002761 0.9999574
0.9998694 0.99991715 1.0000167 1.000021 1.0000225 1.0000708 1.0000902 0.9999173

bn1.bias f4 [16]
00000000: ee89 d237 f2d9 e0b8 67c1 ae38 4293 9ab7
00000010: 58ed ac38 ea65 32b8 f727 7eb8 585d 8538
00000020: 4931 d0b8 5591 65b7 cdd0 92b8 98b2 d538
00000030: 6917 08b7 c6ac d6b7 6a3a 8938 dcfa f9b8
2.509818e-05 -0.00010721748 8.3329905e-05 -1.8426803e-05 8.245808e-05 -4.2533422e-05 -6.059554e-05 6.359321e-05
-9.927393e-05 -1.3683301e-05 -7.000715e-05 0.00010189897 -8.111682e-06 -2.5591242e-05 6.5435495e-05 -0.000119199714

bn1.running_mean f4 [16]
00000000: 6571 cd3c c68f 113d f2c0 6b3c 7a43 513c
00000010: c930 1a3d cbea 0d3d cadf 73bb 1be0 363d
00000020: 50bb f63c 9e36 ddbb 5221 123d d05c 47bb
00000030: 7592 2a3d 8ec0 89bb 73b0 c23c a262 b83c
0.025078485 0.035537504 0.0143892635 0.012772435 0.03764418 0.034647744 -0.0037212246 0.044647317
0.030118614 -0.0067508956 0.035676308 -0.003042031 0.04164358 -0.0042038625 0.023765778 0.02250797

bn1.running_var f4 [16]
00000000: 4508 683f 4755 723f 87bd 6c3f fded 793f
00000010: d197 693f cb63 6a3f 2cd0 763f 8532 6c3f
00000020: 5d57 7e3f 8d66 6c3f d332 723f fb5d 6b3f
00000030: 2a4c 6f3f 1ddd 753f 96de 6f3f 6ae0 693f
0.9063762 0.9466137 0.92476696 0.97628766 0.9124728 0.9155852 0.96411395 0.92264587
0.99352056 0.9234398 0.946088 0.9194028 0.9347559 0.9604052 0.93699014 0.91358054

layer2.0.weight f4 [32, 16, 5, 5]
00000000: ba67 433c 794c 2a3d 33b1 a9bc fffc acbc
00000010: 9025 31bd d7bf 06bb 7151 c2bc 86c3 083b
00000020: 4fc1 26bc c467 883c 014d 313d 98ff 723c
00000030: 0191 83bc 0ffe c8bc 8647 32bd 3288 2c3d
00000040: 282d 1bbc cc9d 253c b0bb ec3a 33a9 02bd
00000050: 18e7 e63c e476 e53c d2de 1a3b da8c eabc
00000060: d00f afbc 9e9e 3e3a cdcc e9bc 00df e3bc
00000070: eb24 f3bb 3d47 6bbc a702 4a3c 0575 56bc
00000080: bdb2 d6bb d40c 9cbc f7ed 3abd 47c1 323d
00000090: ae52 1c3c e730 373d 5c9c 04bc 05a4 4ebc
000000a0: f8b5 40bd 1fc4 9bbc 68ca 053d e94e 49bd
000000b0: a625 90bc f1d3 f83c 984e eb3c 7d36 953c
000000c0: 8886 25bc 90c0 7bbb ab2b 1dbc 47be 97bc
000000d0: cba7 aa3c 7911 8bbc c9e8 e5bc 269b 373c
000000e0: 9140 14bd c7a2 2fbc 8f20 d13c 0674 993c
000000f0: 6815 2e3d 1ab3 0bbd b1e8 da39 2b4f 71bc
00000100: d2d6 e4bc e711 e6bc 3d54 4e3c eaa9 a93b
00000110: 8d46 d1bc 5296 10bd 8730 29bd 149f 483d
00000120: 4e54 0cbc 2518 3ebc 207d 97bc 3393 ccbc
00000130: 0b30 3bbd e106 f0bc 3bc8 fa3c e861 343c
00000140: f448 90bc 98ab 9abc 81f0 023d 55b5 133d
00000150: 7c7f 453d 184a 6f3c 1716 c63c 94ea 82bb
00000160: ebcf efbc d7d1 48bd a58c f93c 94f2 eebb
00000170: 253c a73c 45d3 143b 2fd2 3fbd 822b c9bc
00000180: 751f 653c 69ed 29bc 5bb8 46bd 1959 8e3c
00000190: 9c19 003b 1e15 83bc 871c a53c 33f6 2b3c
000001a0: 9622 97bc bdf0 373d 4625 cd3c ab07 ce3b
000001b0: 4d97 1dbc 5d63 2dbd 28ea 1e3d e1bd 52bc
000001c0: cf3d 04bd 0729 033d 6a7e 913c 362a 4c3c
000001d0: 66c6 22bc 4fe5 7fbc 096f 083c 18bf 1d3d
000001e0: 0b7c ea3b e551 c2bc 29a7 4a3d 1b23 593a
000001f0: ad35 213d f100 483c 5f7b 373d 9942 eb3c
00000200: 83cc d1bc 3a9e 0f3d 37a6 9839 63b4 24bd
00000210: fbe8 2cbc 8619 39bd dcc2 d4bc a0e3 10bd
00000220: 4bf3 0b3d 4461 2cbc cda6 0dbc a119 c43c
00000230: c267 a73c ab52 07bd e40e 973c 582f ae3c
00000240: 178a 22bd d44c 323d d7da f8bc 0c60 9fbc
00000250: db1a 28bd 9ca0 3b3d 5646 1b3c eb6c 2c3d
00000260: a761 5a3b 754e df3c 841f 82bc 2c77 23bd
00000270: 68eb 033c 6c19 90bb 2ba0 a3bb a772 c8bc
00000280: c2a6 863a 0ece 6b3c 64f5 933c 1b02 25bd
00000290: ded0 c53c ea8c a93b e83c 0d3d bc55 103d
000002a0: 0efb 21bd 120f 443d 9c58 49bd 4ed8 ea3c
000002b0: cdbf 583b 57f5 bf3c 8827 dfbc 1beb f43c
000002c0: 952f cbbc 9ef0 34bd d092 893c 34b0 e03c
000002d0: 259a 4a3d c47e abbb a3f9 443d 3fd3 033d
000002e0: e6bb cabc ee6c 1ebd 3ba1 e53c 2a5b e0bc
000002f0: 583d bc3c 9f25 2fbd 18b4 153d ac7c 763c
00000300: f797 babb 5d3b bd3c 383d 11bd 525e 30bc
00000310: 6e28 163a 9e59 ebbc 6be0 4fbc d4ec b0bc
00000320: 5eb4 423d ec10 2e3d 4b13 313d 54be 273d
00000330: d6e0 43bd ae6a 883c 23ec 963c 1c22 16bd
00000340: ff90 a63c 2cae ddbc 2d43 013c 83fc 873c
00000350: 55e1 303d a069 d6bc a3d2 20bd a3be 3d3d
00000360: 7e50 ac3c 223d c73c fac3 933c b8ee 90bc
00000370: 3962 f73c f0b8 32bd 6fc5 e33b 9158 b83c
00000380: 3438 0b3d e035 cdbc 7d55 0abd da57 9a3c
00000390: 9967 22bd 7cea 29bd 6245 38bd 9975 c6bc
000003a0: e4df 1bbc c947 f2bc e2a3 acbc 52a9 35bd
000003b0: 23d6 fb3c f8e7 3abc cc05 01bd f4a8 563c
000003c0: 1601 19bd 07ab 0f3d d507 ec3c 9f05 49bd
000003d0: e548 20bd 71ac 06bd 3d2e ddbc 77d0 cd3b
000003e0: b99f 4abd 6b41 18bd a278 bb3c cca9 85bc
000003f0: 378c a2bc d57c 29bd 0027 a63c 7a55 6d3b
0.011926586 0.041576836 -0.020714378 -0.021116732 -0.043248713 -0.0020561123 -0.023720475 0.0020868494
-0.010177924 0.016651042 0.043286327 0.014831446 -0.016060354 -0.024535207 -0.04352524 0.042122073
-0.009471215 0.0101084225 0.0018061306 -0.031899642 0.028186366 0.028010793 0.0023631346 -0.028631616
-0.021369845 0.00072715606 -0.02854004 -0.027816296 -0.0074201724 -0.014360246 0.012329734 -0.013089423
-0.006552069 -0.019049086 -0.045637097 0.043641355 0.009541197 0.04472437 -0.00809392 -0.0126123475
-0.04704854 -0.019014416 0.032663733 -0.04914752 -0.017596077 0.030374499 0.028724 0.018214459
-0.0101028755 -0.0038414337 -0.009592931 -0.018523348 0.020831963 -0.016976105 -0.028065102 0.011206424
-0.036194388 -0.0107199615 0.02552822 0.018732082 0.042500883 -0.03410635 0.0004175357 -0.014728348
-0.027934466 -0.028084708 0.012593326 0.005177726 -0.025546337 -0.035299607 -0.041306045 0.048979834
-0.008565022 -0.011602436 -0.018492281 -0.024972534 -0.045700114 -0.029300155 0.030613055 0.011009671
-0.017612912 -0.01888065 0.031967644 0.036061604 0.04821728 0.014605068 0.024180455 -0.003995249
-0.029273948 -0.049028244 0.030462572 -0.007292101 0.020414421 0.0022708934 -0.046831306 -0.024556879
0.013984551 -0.010371544 -0.04851566 0.01737647 0.0019546514 -0.01600128 0.020155204 0.01049571
-0.018449109 0.04490732 0.025042187 0.006287535 -0.009618592 -0.04233109 0.038797528 -0.0128626535
-0.032285508 0.03202155 0.017760474 0.012461236 -0.009934997 -0.015618636 0.008327254 0.03851232
0.0071559004 -0.023720691 0.049475823 0.0008283124 0.03935783 0.012207256 0.04479539 0.02871828
-0.025610214 0.035063006 0.0002911554 -0.040211093 -0.010553594 -0.045190357 -0.025971822 -0.03537333
0.03416757 -0.010521237 -0.008645725 0.023938002 0.020435218 -0.033037823 0.018439718 0.02126281
-0.039682474 0.0435303 -0.030377788 -0.019454978 -0.041041236 0.045807466 0.009477219 0.04209606
0.0033322365 0.02725909 -0.015884168 -0.039908573 0.008051731 -0.004397562 -0.0049934587 -0.024468733
0.0010273086 0.014392389 0.018061347 -0.04028521 0.024147447 0.005174269 0.034481913 0.035238013
-0.039546065 0.047865935 -0.04915677 0.028667595 0.0033073307 0.023432417 -0.02724053 0.029897263
-0.024802962 -0.044174783 0.016793638 0.02742777 0.04946341 -0.0052336175 0.048089635 0.03218388
-0.0247478 -0.038678102 0.028030982 -0.02738722 0.02297847 -0.042760488 0.036548704 0.0150443725
-0.005694385 0.023099596 -0.035458773 -0.010764675 0.00057280704 -0.028729256 -0.012687783 -0.021597303
0.047535293 0.042496607 0.04323129 0.040952995 -0.047821842 0.016652431 0.018423146 -0.036653623
0.020332811 -0.02706059 0.007889551 0.0165999 0.043183643 -0.026173413 -0.03926338 0.046324383
0.021034475 0.024321143 0.018037785 -0.017691955 0.030198203 -0.0436334 0.006951026 0.02250317
0.033989146 -0.025050104 -0.033772934 0.018840719 -0.03964958 -0.041483387 -0.044988044 -0.024225997
-0.009513829 -0.029575245 -0.02107424 -0.04435093 0.030741757 -0.011407845 -0.03149967 0.013101805
-0.03735455 0.035075214 0.028812328 -0.049077626 -0.039132018 -0.032879297 -0.026999587 0.0062809545
-0.04946873 -0.037171762 0.02288467 -0.016316317 -0.01984225 -0.041378815 0.020282269 0.0036214278

layer2.0.bias f4 [32]
00000000: 65cd 06bd 8991 313d 5ae7 a13c a28d 243d
00000010: 68b6 883c f824 bbbc 252f 17bd 9073 343d
00000020: 4c56 243d 54ec f4bb 27e0 dc3b 6dd5 4bbd
00000030: a5fe fcbc 9091 34bd 85d5 bbbc 0fe4 cdbc
00000040: 62da 96bc 2bdf 5b3c 8446 833c a2fc acbc
00000050: baff e53c bc74 1abd 6dc9 8b3a ed51 b73c
00000060: a52d 39bd 7c86 b0bb 495b 41bd 5d9e a93b
00000070: 880c 273d 1b87 313d d89c 8a3c f37b c2bc
-0.032910723 0.043351684 0.019763637 0.040174134 0.01668854 -0.022844777 -0.036910195 0.04405552
0.04012136 -0.0074744616 0.006740588 -0.049764086 -0.030883143 -0.04408413 -0.022928962 -0.02513316
-0.01841468 0.013419907 0.016024835 -0.021116558 0.028076041 -0.037708983 0.0010664888 0.022377932
-0.045209546 -0.0053871255 -0.047206197 0.005176349 0.040783435 0.043341737 0.016920492 -0.023740744

bn2.weight f4 [32]
00000000: 2601 803f 4800 803f 1f01 803f 8bfc 7f3f
00000010: 02fe 7f3f a2fd 7f3f 3eff 7f3f b2f5 7f3f
00000020: 0002 803f abf5 7f3f b3fa 7f3f 5dfc 7f3f
00000030: f800 803f fefe 7f3f a5fd 7f3f 64fe 7f3f
00000040: 50f7 7f3f 5cfc 7f3f b3fd 7f3f 1afb 7f3f
00000050: aef8 7f3f 66ff 7f3f 5601 803f f9f8 7f3f
00000060: c3fd 7f3f 3200 803f 0703 803f 6ffa 7f3f
00000070: 63fb 7f3f 14f8 7f3f c8fe 7f3f f4f9 7f3f
1.000035 1.0000086 1.0000342 0.99994725 0.9999696 0.9999639 0.99998844 0.99984276
1.000061 0.99984235 0.9999191 0.9999445 1.0000296 0.9999846 0.99996406 0.99997544
0.99986744 0.99994445 0.9999649 0.99992526 0.9998883 0.9999908 1.0000408 0.9998928
0.99996585 1.000006 1.0000924 0.99991506 0.9999296 0.9998791 0.9999814 0.99990773

bn2.bias f4 [32]
00000000: aae2 f338 d796 adb8 fbfa 6439 c1df 5836
00000010: 2fbe e6b8 cf24 6938 d8c5 9138 ca42 3938
00000020: 4c1c d7b8 46e9 1ab8 430a ebb8 2a20 bf38
00000030: 1645 87b8 eb90 00b9 d0ef 24b7 d0c6 3938
00000040: be83 c3b8 c60a 5238 fbbb 1c39 ed8f 43b8
00000050: 9f31 8eb6 426c 9238 cf0f efb8 19fa 7838
00000060: ba0b 0eb9 d597 5938 6af9 bbb7 57c7 9637
00000070: bd58 0539 f309 e637 f893 2038 9765 ac38
0.000116293624 -8.277379e-05 0.00021837272 3.231675e-06 -0.00011002679 5.558581e-05 6.95099e-05 4.416964e-05
-0.000102572696 -3.6933714e-05 -0.000112075846 9.113581e-05 -6.45017e-05 -0.00012261017 -9.830997e-06 4.4292596e-05
-9.3228635e-05 5.0077935e-05 0.00014947348 -4.6625664e-05 -4.2377064e-06 6.981987e-05 -0.00011399353 5.936073e-05
-0.00013546544 5.1878236e-05 -2.240828e-05 1.7974218e-05 0.00012716926 2.742277e-05 3.828478e-05 8.220522e-05

bn2.running_mean f4 [32]
00000000: 5a0b 043d b61c 393d 015f 2a3d dbc7 363d
00000010: 9f22 023d 909e dc3c 20ac 0e3d 7016 2f3d
00000020: 2a02 2c3d 9fcf 243d 32da c23c 1221 e03c
00000030: 7c6a 293d 6986 233d 708b c93c ee68 0a3d
00000040: a102 0d3d a226 0b3d 1b45 183d 473d 073d
00000050: 4b65 273d 16b0 e13c 0eb0 023d 927d 1b3d
00000060: b67b 143d c927 163d 3ed5 093d 6a0a 473d
00000070: e512 3f3d e2ed 393d eaa2 2f3d 58ea 363d
0.03223739 0.045193397 0.04159451 0.04462419 0.0317713 0.026931077 0.03483212 0.042746007
0.04199425 0.040237065 0.023785684 0.02735952 0.041361317 0.039923105 0.024602622 0.033791475
0.034426335 0.03397239 0.03717528 0.033017423 0.040868085 0.027549785 0.03190618 0.03796155
0.036250792 0.036659036 0.03365063 0.048593916 0.04664888 0.04539288 0.042879976 0.04465708

bn2.running_var f4 [32]
00000000: 169b 7a3f 8c83 6e3f 5e44 6d3f e493 6c3f
00000010: d553 6a3f eaab 6a3f fad2 6b3f 1e6d 733f
00000020: 0871 6e3f 73a5 713f a04c 683f 643c 703f
00000030: bdd8 763f 2fe1 6f3f 4804 6d3f 5e4e 6b3f
00000040: dda6 6d3f 738a 6c3f fa42 6c3f 89f6 6e3f
00000050: e53d 6c3f dec7 6c3f 49a2 6f3f d502 6f3f
00000060: 174e 6e3f 9c86 703f a8f3 6b3f 2328 703f
00000070: 1a7a 763f 0910 733f fe2e 743f 7152 713f
0.9789289 0.93169475 0.92682445 0.92413163 0.9153417 0.9166857 0.921188 0.95088375
0.9314122 0.9439308 0.9074192 0.9384215 0.96424466 0.9370298 0.9258466 0.91916454
0.9283274 0.92398757 0.922897 0.9334493 0.92281944 0.92492473 0.93607 0.93363696
0.93087906 0.939554 0.92168665 0.93811244 0.9628006 0.9494634 0.95384204 0.9426642

layer3.0.weight f4 [64, 32, 3, 3]
00000000: 174f 393d a4f5 6ebd 9cd7 153d 79bf ecbc
00000010: 6244 f33c 00fb 5f3b 106d 40bd b7a8 1d3d
00000020: 2faf 4d3d 682f 06bc 671f cdbc 0446 5b3d
00000030: 81d1 423d c32d 82bc 0fb8 12bd d00d 23bb
00000040: fa5b 3a3d c472 26bd 9cee 22bd 5cf3 103d
00000050: 2916 52bd 5650 0b3d 7265 13bd 41d9 143c
00000060: db4a 9abc 7a30 2a3c b1ed bfbc b7cb 9a3c
00000070: d38b 1a3d bbce 14bd 00c5 4a3d b704 253b
00000080: d509 9fbc a3b9 d63c bf38 debc c65a 1abb
00000090: 9ae5 473d fd1c 2bbd 0b5c 5a3d 7b89 523d
000000a0: f23d 903c ffd1 b73c 9daf 2dbd fc50 5d3d
000000b0: bb8c 1fba a455 14bc 0d71 b83c 02ff 1dbd
000000c0: 8161 f2bc 594c 2cbd f7ad 1fbc cd4b d9bc
000000d0: c658 d53c 6116 53bd 5173 ebbc be82 65bd
000000e0: ed38 11bc 536d 443d a4ee dc3c 0aaf 2f3d
000000f0: 4da5 a23c 4b4f 6f3d 929c febc 5cae e1bc
00000100: e621 40bd aaed 4e3d b5b6 6cbd 0826 543a
00000110: b4c8 e6bc f536 df3c 3a4c cc3c 5443 fc3c
00000120: b491 d5b8 7be6 d43c c3f5 4fbd 598e 313d
00000130: 303a 85bc dd45 57bc 49aa 253c c1e5 c5bc
00000140: a009 d8bc 6075 aabb 69e7 03bc ce33 4a3d
00000150: 58d0 f83c 2f80 1bbd a94d 543d bbf1 fabc
00000160: f66e 8bbc e120 563d ea1b 403d 25cc 3b3d
00000170: 0671 dd3c 1287 4cbd 6e34 20bd 66d6 e0bc
00000180: 129b 883c 43d2 573d 8d40 fe3c 4500 233c
00000190: d6a1 23bd f99e 203d d417 2239 c60b 9f3c
000001a0: c35e e8bc eca6 48bd 5c89 57bd c395 92bc
000001b0: 5dc4 32bd ac6f 51bd 0a56 6d3d 4944 c03c
000001c0: 1e4d 01bc 1718 56bd f80d 2bbd ab6d 64bd
000001d0: 52e5 72bc 031e 2c3d 8ad0 00bc 2ab5 543c
000001e0: 51d0 88bb 45e3 113d ce72 663d 8dd3 c3bc
000001f0: 2315 3abd 443d 0d3d 8360 1f3d 83fa 9b3b
00000200: cb0f d9bc 4e86 63bc 3638 093d 5a69 903c
00000210: 2762 a7bc 5588 8a3c 471f 973c 31fc 89bc
00000220: b6c4 0abd 2492 6a3c b040 6d3c 5ef2 693d
00000230: 257e 1dbc 054a 0d3c 4ee3 543c 7304 d93c
00000240: ccb5 e33c c847 28bd 1512 4d3d 99b1 3d3c
00000250: d5ff 703d f368 3abd f358 573d cb97 303d
00000260: 20c2 b8bc 6372 5ebd 4881 1b3c 40db 123d
00000270: c448 f6bc 260d c73c f22d 163c cc30 4d3d
00000280: ceb0 6a3d aad7 da3c d890 26bc fb8f a1bc
00000290: 416c 2a3d 0d21 02bd b1e0 b3bc 0c05 0dbd
000002a0: 4c43 70bd b403 593d b3d1 1a3d 1962 c53c
000002b0: e936 323d 5f77 2c3d c884 263d 1350 1dbd
000002c0: 4582 1d3d 8cbb 88bb 1e0a 683d 0489 543d
000002d0: da6f 583c 993b 02bd 556e 633d 5343 6fbd
000002e0: 2d3f cfbc b118 903c 3fcf e03b d44b 36bd
000002f0: 8cf0 0cbd 7866 3d3c 6dca 3abc 10ee 42bd
00000300: e8eb 0b3d 507b 313d 84f5 bbbb 06aa f43c
00000310: 81da 463c 9ced 053d 8742 b439 495a 923c
00000320: 7ab1 273d f7d7 94bc bda9 2d3d 5136 873c
00000330: d2f3 42bd b904 403d 2ce8 bcbc 53cb 6bbd
00000340: 2c65 75bc 7544 6fbd ea29 89bc b1cf 70bc
00000350: 844c 2ebd 3202 453d 8129 163d 9922 f23c
00000360: 1e01 5f3d 18f0 c4bc 3ea5 b93c a410 343d
00000370: d4ca 403d 612a b03c 1293 dd3c 1b5b 593d
00000380: 8e92 493d 716c 40bd a196 463d 3936 bdbc
00000390: 26cf 1c3d ee1d 6bbd 605d 573d 6c0f 4a3d
000003a0: b961 89bc 9057 5c3d 39d1 433c 997e 1fbd
000003b0: 7e94 bc3c 3d13 18bd 8a3b fdbc 1346 4f3d
000003c0: 0a51 e93a 7ce4 03bd e48c 67bd ef0a 44bb
000003d0: f479 d93b d640 29bc 4971 313b b225 453d
000003e0: 3ba6 5cbd da9c 603c 5ccf dfbb 0caf 54bd
000003f0: 3dc9 6abd cd5a 2bbb f6d4 68bd c6ed 6e3d
0.04524144 -0.05833973 0.036582574 -0.028899895 0.029695693 0.0034176707 -0.04697901 0.038490977
0.050215896 -0.0081900135 -0.025039388 0.05353357 0.04756308 -0.015890962 -0.035820063 -0.002488006
0.045497872 -0.040636793 -0.039778337 0.035388336 -0.051290665 0.03401216 -0.035985418 0.0090850005
-0.018834522 0.010387534 -0.02342877 0.018895967 0.037731003 -0.036329966 0.04950428 0.0025179812
-0.019413868 0.026211565 -0.027126668 -0.002355264 0.04880295 -0.041775692 0.053310435 0.051400643
0.017607663 0.022439001 -0.042403806 0.05403231 -0.0006086339 -0.009053621 0.022514844 -0.038573273
-0.02958751 -0.042065 -0.009746066 -0.026525402 0.026043307 -0.051535014 -0.02874151 -0.05603289
-0.00886367 0.047955822 0.026969261 0.04289154 0.019854212 0.05842523 -0.031080518 -0.027548961
-0.046907328 0.050519623 -0.05779143 0.00080928253 -0.028171875 0.027247885 0.024938691 0.030793823
-0.00010183771 0.025988808 -0.050771486 0.043348644 -0.016263098 -0.013139215 0.0101114 -0.024157407
-0.026371777 -0.0052019805 -0.008050778 0.04936581 0.030372784 -0.037964042 0.051831875 -0.030632844
-0.017020684 0.05227745 0.04690162 0.045848984 0.027031433 -0.0499335 -0.0391125 -0.027445983
0.016675506 0.052690756 0.03103664 0.009948795 -0.03994926 0.03921411 0.000154584 0.019414794
-0.028365498 -0.048987314 -0.05262123 -0.017893678 -0.043644298 -0.05113189 0.05794338 0.02347006
-0.007891921 -0.052269068 -0.04176137 -0.05576865 -0.014825182 0.04202081 -0.00786222 0.012982646
-0.004175224 0.03561713 0.05626183 -0.023904586 -0.045430314 0.034482256 0.0389104 0.004760088
-0.026496788 -0.013887001 0.033500873 0.01762836 -0.020432545 0.016910711 0.018447531 -0.016843887
-0.033879004 0.014317069 0.014480755 0.057115905 -0.009612595 0.008623605 0.012993647 0.02649138
0.027796648 -0.04108408 0.050066072 0.011577987 0.05883773 -0.045510244 0.052575063 0.04311351
-0.022553504 -0.054308306 0.009491272 0.035853624 -0.030063994 0.024298262 0.009166228 0.050095364
0.05729752 0.026714165 -0.010166369 -0.019721976 0.041607145 -0.0317698 -0.021957727 -0.03442864
-0.05865793 0.052982047 0.03779764 0.024094628 0.043509398 0.04210603 0.040653974 -0.038406443
0.038454313 -0.004172748 0.056650274 0.05188848 0.013210261 -0.031795118 0.055525143 -0.058413815
-0.02529868 0.017589899 0.006860643 -0.04450591 -0.03440909 0.011560075 -0.011400801 -0.047590315
0.034160525 0.04333049 -0.005736055 0.02986623 0.012137056 0.032697305 0.00034381842 0.017865317
0.04094074 -0.018169386 0.042398203 0.016505392 -0.047595806 0.046879504 -0.023059927 -0.057566952
-0.014977735 -0.058414895 -0.016743619 -0.014697955 -0.04255344 0.048097797 0.036660675 0.029557513
0.054444425 -0.024040267 0.022661801 0.043961182 0.047068432 0.021504583 0.027047668 0.0530654
0.04921203 -0.046978418 0.048483495 -0.023097144 0.03828349 -0.05740159 0.052579284 0.049331114
-0.01677023 0.053794444 0.011951738 -0.038939092 0.023020025 -0.037127722 -0.03091218 0.050603937
0.0017800641 -0.03220032 -0.05653085 -0.0029913743 0.0066368524 -0.0103303995 0.002707558 0.048131652
-0.053869467 0.013709271 -0.006830139 -0.05192475 -0.057320822 -0.002614665 -0.05684372 0.058332227

layer3.0.bias f4 [64]
00000000: 9e40 033d 8acd 093d 6f51 083d 4ce2 e03c
00000010: 6f45 b4bb 02ba 79bc 9786 113c 3baf 373d
00000020: 1391 833c 030f 133d 2109 1dbc cd20 5b3c
00000030: c44f 5a3d 5de1 e03c 8c68 bd3c b89f 4c3c
00000040: daaa 03bd 3c23 743c bf45 41bd 19fd 04bd
00000050: a8bc 69bd 87c1 05bd 2823 e33a 9878 363b
00000060: d5f4 703d ff69 593d a66e 54bd 2cfb b93c
00000070: 4eec 593d 5ba9 b7bb c954 483d 69f1 67bd
00000080: 7740 413c cf91 933c 46c7 eabc 319c 2bbd
00000090: 5b1f eb3c c2a2 6dbd 2f70 c5bc 06e5 ffbc
000000a0: 81f6 debc 43df 1d3b 80f8 033d 3145 1b3d
000000b0: 373d ca3b 315b eebc dbf7 ef3a cf71 97bb
000000c0: f716 483d 362e 3ebd 53d8 37bd 51b9 cebc
000000d0: 31b0 debc a4a0 27bd 491a 2f3c 9225 1bbc
000000e0: ccc6 6d3d 0655 a33c cd2e 903c 6347 4e3d
000000f0: 8181 3dbd b6cb f13b 2ab9 01bd ab0a 6d3c
0.032044046 0.033643283 0.033280786 0.027451657 -0.005501441 -0.015242102 0.008882186 0.044844847
0.016060388 0.03590299 -0.009584696 0.01337452 0.053298727 0.027451212 0.02312114 0.012489252
-0.03214536 0.014900979 -0.047185656 -0.032467935 -0.057064682 -0.032655265 0.0017329203 0.0027842876
0.05882724 0.0530796 -0.051863335 0.022702776 0.053203873 -0.0056049055 0.048908982 -0.05662671
0.011795155 0.018013863 -0.028659474 -0.041897003 0.028701475 -0.058016546 -0.024101345 -0.031237137
-0.027217152 0.0024089373 0.03221941 0.037907783 0.006171848 -0.029096218 0.001830812 -0.0046217213
0.048850026 -0.04643079 -0.044884037 -0.02523485 -0.027183624 -0.040924683 0.010687419 -0.009469407
0.058050916 0.019938003 0.017600441 0.05036105 -0.046266083 0.0073790206 -0.031670727 0.0144678755

fc1.weight f4 [100, 1024]
00000000: f98f f43b 583a 5d3c 9221 8ebc 774f 14bc
00000010: 6075 5e3b b779 4cbc d110 7dbc 916f 3c3c
00000020: 7f4c d93b 4cdf d3bc 0515 edbc e285 b7bc
00000030: e334 313c 35b7 333c 179f df3c 2618 b93a
00000040: 4ee2 aa3c 6ed0 f8bc 5b18 a9bc 850a cbbb
00000050: 1815 333b 34a6 443c 4374 9dbc 872e fdbc
00000060: b4dd 9bbc 671a 96bc 6984 00bc 5f2c 5c36
00000070: fee1 b5bc 2010 c03c 7036 2c3c 17e2 fc3c
00000080: 8fe7 65bc 1497 f83b 821a 693b fa7f 24bc
00000090: 51cc 633c f312 b3bc 563b 5bbb 1c0f 15bc
000000a0: 54c0 bcbc 0107 f93c da32 9b3c bb31 6fba
000000b0: 1da4 093c afc0 13bc 0c9a 223b f5f0 b3bc
000000c0: 6152 c93c a623 ee3b fc9d 813c d4bf 1fbc
000000d0: d713 bbbc 5cfa a13a 8d4a bebc 01b3 d43c
000000e0: 4097 60bc db33 d03c 93fe dc3b edff 3abc
000000f0: 1d0c c03c 535c 453c 243a abbc 1075 513c
00000100: 1bae f23c 4bb5 a7bc b0d3 a13c 8c7e f03c
00000110: 524d b2bc 20b2 99bc a073 70bb 75b4 a53c
00000120: 0757 59bc 30d1 de3c a239 e9bc ed69 763c
00000130: ec5e c63b 9cd9 3b3c e394 0c3c 8945 073b
00000140: 5d19 36bb b0aa a5bb e13a e93a 9f2b 9fbc
00000150: 1147 1d3c cf3a c1bc d3c2 1abb 72ec 79bc
00000160: 119b fabc 2136 2cbc b7bc 4c3c 63f4 85bc
00000170: bcc3 41bc 83b9 fc3c 8157 183c 7090 e43b
00000180: 5e5b 27bc accd ae3c a6b3 c9bc 0cc3 ee39
00000190: cb1b cdbc 4d7b d93a 20ed 3f3c 4992 ffbc
000001a0: 787b 183b 86d9 553c 6f41 e93c d312 45bc
000001b0: d94e 233c 55e7 94bc 794e 483c adf0 f43c
000001c0: 1c69 6d3c 9b47 61bc 0ee4 62bc 024d d73c
000001d0: 5f70 e5bc 1075 ad39 59e5 43ba cd98 a53c
000001e0: ccbb 3ebc 3c43 c23c 69ab 8f3b c5ce 85ba
000001f0: 6fa0 debb e0d5 edbc 47ab 75bc be8d ffbb
00000200: 54fa 4c3c 20dc 49bc 4c54 82bc bb23 c9bc
00000210: 24e9 eabc 4206 8dbc 21c2 84bc f226 903c
00000220: 1b22 2d3c 5648 00bc c9fa 623c e71e 3d3c
00000230: 61a2 ed3c aaf7 bf3b 2b06 e8ba 445a e13c
00000240: 73fd dcba 0e30 963c d539 7fbc 2706 213b
00000250: a4e6 90bc f4cd ca3c 301a 703c 4919 10bc
00000260: 8837 f0bc 4d2d de3c f884 28ba 495e a83c
00000270: 528b 733c 4c98 f83b 4f97 f2bb b737 fabc
00000280: 2557 013c d980 4dbc a7b9 92bc 23a9 b83c
00000290: 0e0d 5bbc 0d93 883c 37b6 193c 8d80 a03c
000002a0: 7d65 0c3c 130a 50bb 27cf 5e3b fc77 e1bc
000002b0: ab92 b13c eee2 d83b da83 9abc 3440 aa3b
000002c0: ad85 c1bc 8f76 ff3b f735 fa3c 4fca 123c
000002d0: e6bc 0d3c be02 31bc 7135 8d39 04bd 96bc
000002e0: 33b8 94bc 722b cb3c 5614 0a3c 9570 8a3c
000002f0: 22f6 5dbc e95a 6a3b a5dc d93c 4710 95bb
00000300: 68c8 f3bc c6cd e0bc 7c23 e3bc 11be 553c
00000310: 264e c13c 9dd0 043c f959 0e3c 57eb ed3c
00000320: 11a6 8ebc 6417 ce3c 44a8 c4bc ce75 7a3c
00000330: 67c5 bfbc 7b68 c1bc 2f38 5d3b 3621 343c
00000340: d9b1 be3b f3fa c33a 5e37 9c3c a2a2 b33c
00000350: de0a d53c c2e1 c13c 93c0 523c 8492 cebc
00000360: 4f74 0fbb ce72 ed3c 73de adbc 66e1 cdbc
00000370: 1a3e ea3c 106a f3bb c6ff e6bc 823e b63c
00000380: d19e 6b3c 5910 fb3c b1cc eb3c 6235 5abc
00000390: 2f44 983c 178e 1fbb 0c54 8cbc 03ee 863c
000003a0: 66d8 c1bc c90b 353b 5722 273c 48c1 e43c
000003b0: a949 d63b 9e7f da3a 39a1 b33c 0e84 c2bb
000003c0: 2366 113c 4095 80bc 9ad0 d63c 38be 3b3b
000003d0: ee52 44bc 333f c3bc ec37 523c 2246 bbbc
000003e0: 17c5 81ba 24d9 8dbb 27e8 f2bc c77b 863c
000003f0: eda2 22bc 8fb6 84bb d8d1 cfbc 3e22 04bc
0.007463452 0.01350268 -0.017349992 -0.009052149 0.0033944473 -0.012480191 -0.015445904 0.011501209
0.0066314335 -0.025863312 -0.028940687 -0.022402707 0.010815832 0.010968973 0.02729754 0.0014121577
0.020859864 -0.030372825 -0.020641496 -0.0061963224 0.0027325805 0.012002517 -0.019220477 -0.030905975
-0.019026615 -0.018323136 -0.007844069 3.2808382e-06 -0.022202488 0.023445189 0.010511026 0.030869527
-0.014032259 0.0075863693 0.0035568778 -0.010040278 0.013903693 -0.021859622 -0.0033452115 -0.009097841
-0.023040928 0.030398848 0.018945146 -0.0009124537 0.008400944 -0.009018107 0.0024811057 -0.021965483
0.024575414 0.007267433 0.015822403 -0.009750325 -0.022836609 0.0012357938 -0.023228908 0.025964262
-0.013707936 0.025415352 0.006744215 -0.0114135565 0.023443276 0.012045938 -0.020901747 0.0127842575
0.029624036 -0.02047219 0.01975426 0.029357217 -0.021765385 -0.018761694 -0.0036690012 0.02022765
-0.013265378 0.027199358 -0.028469864 0.015039903 0.006053796 0.011465456 0.008580419 0.0020640811
-0.0027786114 -0.005055748 0.0017794037 -0.01942998 0.009599463 -0.023587612 -0.002361466 -0.015254127
-0.03059152 -0.010510952 0.012496165 -0.016351884 -0.011826452 0.030850178 0.009298206 0.006975226
-0.010214655 0.021338306 -0.024621796 0.0004554022 -0.025037667 0.0016592533 0.01171425 -0.031197684
0.0023266952 0.01305235 0.028473584 -0.012028414 0.009967529 -0.018176714 0.012225741 0.02989992
0.014490392 -0.013749982 -0.013848318 0.026281837 -0.028007684 0.0003308435 -0.0007472835 0.020214463
-0.011641454 0.0237137 0.0043844474 -0.0010208717 -0.0067940275 -0.029032648 -0.014994449 -0.0077988794
0.012510855 -0.012320548 -0.015909337 -0.02455317 -0.028675623 -0.017214898 -0.01620585 0.017596696
0.010567213 -0.007829746 0.013853737 0.011543012 0.029008092 0.0058583813 -0.0017702034 0.027508862
-0.0016860202 0.018333461 -0.015577753 0.0024570317 -0.017688103 0.02475641 0.014654681 -0.008795091
-0.029323354 0.02712121 -0.00064285053 0.020552771 0.0148647595 0.0075865146 -0.0074032913 -0.030544145
0.007894312 -0.012542927 -0.017910792 0.022541588 -0.013369812 0.016671682 0.009381822 0.019592548
0.008569119 -0.0031744286 0.0033997984 -0.027523033 0.021676382 0.006618849 -0.0188617 0.005195642
-0.023623312 0.0077961157 0.03054331 0.008959367 0.008650994 -0.010803876 0.00026933433 -0.018400677
-0.01815424 0.02480099 0.0084277 0.016899386 -0.013547452 0.0035759753 0.02659447 -0.0045490596
-0.029758647 -0.02744187 -0.027726881 0.013045804 0.023596834 0.008106378 0.008688443 0.029042883
-0.017413171 0.025157638 -0.024006017 0.015286876 -0.023409558 -0.02360939 0.0033755412 0.010994246
0.005819541 0.0014952108 0.01906937 0.021928135 0.026006158 0.02366722 0.012863296 -0.025216348
-0.0021889394 0.028985407 -0.021224236 -0.025131892 0.028594065 -0.007428415 -0.028198134 0.022246603
0.0143811265 0.030647444 0.028784128 -0.0133183915 0.0185872 -0.0024346167 -0.01712992 0.016470915
-0.023662757 0.0027625433 0.010201058 0.027924195 0.0065395427 0.0016670113 0.021927463 -0.0059361523
0.008874449 -0.015696168 0.026222516 0.0028647315 -0.011982663 -0.023833847 0.012830716 -0.02286059
-0.0009900656 -0.0043288637 -0.029651714 0.016416444 -0.00992654 -0.004050083 -0.025368616 -0.008064805

fc1.bias f4 [100]
00000000: c23b a0ba 6187 c1bc a320 d1bc 1901 f03b
00000010: a842 df3c 7a54 723c 5b8e a2bc 2df0 62bc
00000020: e66d d3bc e9e5 cabc 1342 3b3c 4363 963b
00000030: 90b7 703c 188a cf3c 9542 98bb aaea 423c
00000040: 9b26 2bbc af63 d83c 80a8 f63b ea06 c5bb
00000050: b447 15bc 9fe9 ac3c 0922 6f3c 37fe c6bc
00000060: ef24 463c 160e 8abb f1c4 fc3c 0d87 903b
00000070: 999d 34bc e324 96bc 538b dbbc 98a3 f1bc
00000080: c8ce 17bc 1c11 f13c cf08 e8bb 8e4c e0bc
00000090: 3319 983b 8d67 efbb 431c 823b 808e d6b9
000000a0: d45a febc 2776 dfbc f31a 7ebc f746 11bc
000000b0: 8132 1a3c 773d f9bb 3599 8abc a268 8bbc
000000c0: 5cc0 923a 7600 e7bc 655c c2bb a82a 25bc
000000d0: 506b 0ebc 2a01 8cba 8849 1ebc 922d 8ebc
000000e0: c433 dcbc 2936 b33c 9f66 8dba ae98 c2bc
000000f0: 2645 f0bc 6454 233c 05ff 8fbc 1a02 e3bc
00000100: 92a8 a23c 1ca9 ce3c d345 a4bc 4ac6 f6bc
00000110: a933 d63c 8b83 db3c 5c34 b2bc 26c3 adbc
00000120: e088 cd3c cb73 6b3c 63d6 ce3b 56be 4cba
00000130: d3e4 dc3c 8d9b 243a 7eef cdbb 5263 82bb
00000140: 5d3f e439 284f 9b3b 1ce6 c83c 6219 803b
00000150: d05c 81bb b286 b83c 918f 11bc a7e1 b4bc
00000160: 7dbe e9bc 41be bdbb b075 54bc c255 c3bc
00000170: cf64 923c f131 a4bb e7fc 243c 0d74 d43c
00000180: 14eb 9b3c 8a58 06bc 4994 b5bc 8a33 3dbc
-0.001222484 -0.023624124 -0.025528258 0.0073243496 0.027253464 0.014790649 -0.019843271 -0.013851208
-0.02580924 -0.024767833 0.011429328 0.0045894696 0.014692202 0.025334403 -0.004646609 0.011896769
-0.010446216 0.02641472 0.007527411 -0.006012787 -0.009111334 0.021107493 0.014595517 -0.024291141
0.012093767 -0.004213105 0.030855628 0.0044106306 -0.011023902 -0.018328136 -0.026799833 -0.029496953
-0.009265609 0.029427104 -0.007081128 -0.027380254 0.004641676 -0.0073060454 0.003970654 -0.00040923432
-0.03104917 -0.02727802 -0.015509355 -0.008867017 0.009411455 -0.007606204 -0.016918758 -0.017017666
0.0011196244 -0.028198462 -0.0059314244 -0.010080971 -0.0086925775 -0.0010681499 -0.009661086 -0.017355714
-0.026880153 0.021876412 -0.001078803 -0.023754444 -0.029329848 0.009968851 -0.017577657 -0.027710963
0.019855771 0.025227122 -0.020052826 -0.030123848 0.02614768 0.026796123 -0.021753483 -0.021211218
0.025089681 0.014370869 0.006312178 -0.00078103447 0.02696458 0.00062792824 -0.006284653 -0.003979125
0.00043534758 0.004739661 0.024523787 0.003909276 -0.0039478317 0.022525165 -0.008884327 -0.022080256
-0.028533215 -0.0057905023 -0.012967512 -0.023844603 0.017870335 -0.0050108363 0.010070062 0.025934244
0.019032992 -0.00819982 -0.022165434 -0.011547932

fc2.weight f4 [10, 100]
00000000: ce7c 4d3d 2eae 15bc fcb2 f93c 7109 56bd
00000010: 5152 9c3d d2de ad3d 61b7 71bd 1e47 6b3d
00000020: 4c49 2abd 2092 38bd 71d5 6abd 782e 973d
00000030: aa4c 9ebd fbf3 343d d209 2b3d 5594 b2ba
00000040: 924d b23d 31f8 c83d 55c5 b4bd eaed c33d
00000050: 1b95 593d 338e 2cbd 3392 68bd bf31 253d
00000060: 9df1 53bd 00d1 acbc 311d b8bd fef6 9dbc
00000070: bba6 863d 9148 3bbc 1e14 60bb 5c86 393b
00000080: c655 4dbd e216 353c 68d0 723d 0646 bc3d
00000090: be0a 3fbb c3fd 8c3d 5dc2 633c 9847 be3c
000000a0: 3e23 8e3d a78d 403c 76ca 05bd e1ed 883c
000000b0: 149b c5bd 5996 8e3d 19d7 ceba c1e2 50bd
000000c0: 26f7 afba 6739 abbc 9214 c23d 3669 c63b
000000d0: 2043 173c 3e23 3b3d 539b ac3d bf5d 82bd
000000e0: 021d cfbc dac5 9dba 03ef 1dbd 22d3 be3d
000000f0: 0493 bcbd b319 223d fafe 223d bfc1 243a
00000100: 41cc ea3c a3d1 e3bc bafc bbbd 2126 04bd
00000110: daa8 2bbd 3eaf e2bc c08d d33b 7fae aabd
00000120: 7382 80bd 3cc5 b0bc c70b 5e3d 4bc9 c13d
00000130: 60cf c9bd 1441 d8bc 10e0 bcbc 02d6 bdbd
00000140: ea67 4bbc 3d9d 5a3d 7ae9 79bd 6537 073c
00000150: e5d0 a8bc 2dc7 203d 14b8 ecbb 9742 473d
00000160: c95b 80bd 1d17 2e3d 6e65 b8bd 0f4c 6ebc
00000170: 1c01 bf3d 908e 44bd a8f1 2ebc 68a3 013d
00000180: 8919 a93d 1e57 b5bd 64c1 b1ba 85c9 653d
00000190: d8c0 263d e753 3a3d 7e88 9dbc 0188 993d
000001a0: b0f4 503c 639b 1d3d 653f aebc fce4 aa3b
000001b0: 3e4e 22bc 0b39 c83d 1e1d 0b3d d5b4 9b3d
000001c0: 712c a9bc c52c f9bc 7bef c03d e0db de3c
000001d0: 9d37 00bd 7b88 91bc d0f9 843c bdf7 acbd
000001e0: fa5b ba3d d39b de3c 396a 30bd 76c4 6b3d
000001f0: 193a aa3d 158b c33b fdc1 c23d 1a50 313d
00000200: 7e86 713c 09e3 c8bc e40f 8fbd ca56 85bd
00000210: d68b 04bd 8851 cc3d 0ab6 413a ca4d 0bbc
00000220: 0436 b0bd 7452 7bbd c3db 16bd 9f42 873d
00000230: 756a 9dbd 8b92 e63c afbb 4d3d 4260 9a3d
00000240: f18e 32bd c3b4 443d e686 7bbd 73fb ee3c
00000250: 3274 90bd fb0d 6ebd d72c 683d ee4a d9bc
00000260: 55ae 473d 74cd 91bd fbc8 bcbd 21b5 b8bc
00000270: 5b29 af3d adcf fe3c 2c43 8c3c db3e 3cbd
00000280: 4967 81bc 81f2 2e3d 7857 ae3d 7183 4abd
00000290: 8c1d 3a3a f7d8 613d 24c3 8e3d cc0a 87bd
000002a0: 32f6 cabc a3dc 91bd 7809 103d c55f f83c
000002b0: 8eaf a6bd e53c 29bc 1aca 113d 932c 11bd
000002c0: ff23 263d 5a13 b33c 9245 04bc 7d8a 01bd
000002d0: 2dc7 38bd b1a4 513a fcca 2b3c 1bc3 edbb
000002e0: 5d3c 55bd 568c c9bd 98c8 9fbd e1b7 403d
000002f0: fafd 973d 2ace 73bd 5151 5cbd 7d55 a1bd
00000300: 38d1 f7bc d024 5dbd d6ef 0f3d 8430 cd3d
00000310: f301 c03d 8fb6 bcbb 1607 633d 2bd6 193d
00000320: bbfd 74bd 36c4 92bd 5808 ab3d 1a5b aa3c
00000330: b724 afbc 39e1 c93b 4841 6abd a9dd 8abd
00000340: 6973 96bd 1755 bd3d c213 d93c 45c1 8e3d
00000350: 41e0 003c 9b66 a13c 80e0 873d b100 c13d
00000360: db2e 12bd 7925 2fbd e6b3 c03c a319 2cbc
00000370: ecb2 743d 29bf babd d3cb 843c e93e f3bc
00000380: 9deb a43d 74f9 783d f0d8 2dbb 7461 9e3d
00000390: 5edb 8a3d 0736 d7bc d998 b93d 45df 9cbb
000003a0: a6de 77bd 26a5 0ebc 2d9c 0b3b c717 b93d
000003b0: 2343 163d b260 963d 4c64 8f3d 8feb 88bd
000003c0: b3ca aabd 39a8 9dbc 93b8 823d b3dd 87bd
000003d0: 9be2 b73d bfe7 a23c 998f 77bd 4bdb ecbc
000003e0: f2b4 0d3d 9d7c 51bc d860 c23d 7b0b 56bb
000003f0: 9dc9 993d 9f5e c83d 5fab 013d 80c6 3c3d
0.05016785 -0.009135766 0.030480854 -0.052255098 0.07632888 0.08489765 -0.059012774 0.05744087
-0.041573808 -0.04506123 -0.05733246 0.0738191 -0.07729466 0.04417799 0.041757412 -0.0013624529
0.087062016 0.09812964 -0.088267006 0.09566863 0.053120714 -0.0421278 -0.05678005 0.040330645
-0.051744092 -0.021095753 -0.08989943 -0.019282814 0.0657477 -0.011430875 -0.0034191678 0.0028308844
-0.050130628 0.011052819 0.059280783 0.091930434 -0.002915069 0.06884339 0.01390132 0.023227498
0.06940316 0.011752523 -0.032663785 0.016714992 -0.096487194 0.0696227 -0.0015780657 -0.0509975
-0.0013425096 -0.020901395 0.0947658 0.0060550226 0.009232312 0.045687906 0.08428063 -0.06365537
-0.025282387 -0.0012037114 -0.038558017 0.09317614 -0.092077285 0.03957529 0.039793946 0.0006284974
0.028661849 -0.027809924 -0.09179063 -0.032262925 -0.041909076 -0.027671453 0.006456107 -0.08334064
-0.06274881 -0.021578424 0.05421045 0.09462222 -0.09854007 -0.02639822 -0.02305606 -0.092693344
-0.012414912 0.05337261 -0.061013676 0.008252953 -0.020607421 0.03925245 -0.0072240923 0.04864749
-0.06267507 0.04250251 -0.09003721 -0.014544501 0.093263835 -0.04798752 -0.0106777325 0.031649977
0.082568236 -0.08854507 -0.0013561663 0.056100387 0.040711254 0.04549017 -0.019230124 0.07496644
0.012753651 0.038478266 -0.021270463 0.0052152853 -0.00990635 0.09776505 0.033963315 0.0760285
-0.020651074 -0.030416856 0.09420677 0.027204454 -0.031303037 -0.017765274 0.016232401 -0.0844569
0.090995744 0.027173912 -0.04307005 0.057560407 0.083118625 0.0059675076 0.095096566 0.04328928
0.014741538 -0.024522321 -0.06985453 -0.06510694 -0.03235992 0.09976488 0.00073894917 -0.008502433
-0.08604053 -0.06135793 -0.036830675 0.06604504 -0.07686321 0.028146049 0.050227817 0.07537891
-0.04359335 0.04802395 -0.061407946 0.029172635 -0.070534125 -0.0581188 0.056683388 -0.026524987
0.04875024 -0.07119265 -0.092180215 -0.022547306 0.0855281 0.031104887 0.017121874 -0.04595838
-0.01579632 0.04271174 0.08512777 -0.04944176 0.000709974 0.055138554 0.06970814 -0.06593856
-0.024775598 -0.07122161 0.03516528 0.030319104 -0.08138953 -0.01032946 0.03559313 -0.0354429
0.040561672 0.021859813 -0.0080732275 -0.031626213 -0.045111824 0.0007997258 0.010485407 -0.0072559244
-0.05205952 -0.0984122 -0.07801932 0.04705036 0.07421489 -0.059522785 -0.053788487 -0.07877634
-0.03025113 -0.053990185 0.035140835 0.10019019 0.09375372 -0.0057590674 0.05542668 0.037557762
-0.05981229 -0.071663305 0.08351201 0.020795394 -0.021379812 0.006160882 -0.057191163 -0.067805596
-0.073462315 0.09244745 0.02649868 0.06970457 0.007865966 0.019702246 0.06634617 0.0942396
-0.035689216 -0.042760346 0.023523282 -0.010504159 0.059740946 -0.09118492 0.016210472 -0.029693084
0.08052752 0.060784772 -0.002652701 0.077334315 0.06780122 -0.02627088 0.090623565 -0.004787358
-0.06051507 -0.008706367 0.0021302805 0.09037738 0.03668512 0.07342662 0.07001552 -0.06685554
-0.08339443 -0.019245254 0.06382861 -0.06634083 0.089787684 0.019885896 -0.06043968 -0.02891316
0.03459639 -0.012786058 0.09491128 -0.0032660651 0.07509158 0.097836725 0.031657573 0.04608774

fc2.bias f4 [10]
00000000: ec90 103d 4f60 c6bd c718 42bd 607c b53d
00000010: 7e9d aa3c bef8 08bc 105d 15bd 9242 9d3d
00000020: e6b2 ec3c 8f86 65bd
0.03529446 -0.09686338 -0.04738691 0.08861613 0.020827051 -0.008360086 -0.036465704 0.07678713
0.0288939 -0.05603653
