results/Net.ckpt (torch, 93283 bytes, 16 tensors)

conv1.weight f4 [10, 1, 5, 5]
0.16399102 -0.10958691 -0.2320606 -0.13738151 -0.26977858 0.26922065 0.1222622 -0.026305955
-0.14231929 -0.26419643 0.13154328 0.32856405 0.27620497 0.0648915 0.026310805 -0.04215899
0.18745868 0.30902395 0.51728404 0.34136507 -0.12810902 -0.2652459 -0.19575258 -0.09914729
0.05635135 -0.13605143 0.12604961 0.034623306 -0.6921675 -0.18908525 -0.059300076 0.42676327
0.21025987 -0.54921275 -0.36243057 -0.16794738 0.49313745 0.07382482 -0.12271842 -0.1552028
-0.018126007 -0.059213176 0.21926576 -0.03160437 -0.09133582 -0.06258021 -0.123417184 0.075953245
0.024019083 0.015986588 -0.16443889 -0.3261164 -0.25454172 -0.074255824 0.3558003 -0.07031453
-0.25622487 -0.022889353 0.5488945 0.24101599 -0.20779109 0.17364869 0.5361004 0.43351632
-0.37478873 0.001221652 0.17444775 0.09692131 -0.41937906 -0.40801433 0.009581823 -0.0582323
-0.16474275 -0.23128238 0.16591913 0.07105057 0.33458844 0.33325586 0.13498546 0.12587501
-0.3748493 -0.1358483 0.055395428 0.120489925 0.05872378 -0.49090815 -0.51555705 -0.29804745
-0.24645206 -0.035485853 0.03613947 -0.3728516 -0.30411127 -0.17386396 -0.20132479 0.22175802
0.3133413 0.08207599 -0.07969593 -0.12609278 0.14280514 -0.021798288 0.1363698 0.118262745
0.009384554 -0.36136338 0.2504644 0.4173171 0.3012193 0.19651353 -0.11842564 0.48453927
0.43307814 -0.37671024 -0.10800281 0.18288772 0.30735767 0.0663399 -0.45872346 -0.29042986
-0.10156611 -0.07763967 -0.04393133 -0.2859552 0.12775478 -0.23349035 -0.36440283 -0.078167014
0.1588669 0.3115835 -0.1977718 0.11561583 0.3727075 0.28227216 0.03844284 0.32591748
0.28952584 -0.043209076 -0.22673434 -0.33934337 0.011968505 -0.05974262 -0.3162828 0.10116953
0.3029065 -0.107927226 0.083121456 0.07294789 0.29353994 0.12702899 -0.06389074 0.13232867
-0.09600262 -0.12970981 -0.3995048 -0.22921813 -0.43608847 -0.28214476 -0.08069947 -0.34623954
-0.15849063 -0.1372759 -0.04352147 0.02236255 -0.25970697 0.19263297 0.009737873 0.07430779
0.0029689898 -0.02547311 0.21956441 0.3522003 0.24051367 0.41302544 0.45956427 0.22340435
0.19379622 0.08346731 -0.19961049 -0.1573288 0.21142659 0.20180647 -0.19596347 -0.5117935
-0.44148642 -0.028185291 -0.54008126 -0.9320448 -0.41601053 -0.011137758 -0.40008703 -0.6771316
-0.27267683 0.17345038 0.50837773 -0.1232926 -0.002457348 0.26158437 0.31996346 0.18321389
-0.12518083 -0.38695887 0.05522697 -0.051774804 0.2935929 -0.04763162 -0.17137139 -0.14421326
0.07112792 0.27654222 0.15416141 -0.02697948 -0.4763766 -0.04208301 0.30107155 0.323058
0.17047256 -0.41180012 -0.2492007 0.30700752 -0.12948403 0.25757107 -0.28351983 -0.22804411
0.2189839 -0.06465163 0.11352454 0.22575928 0.19755329 0.32008788 -0.01728074 0.022793349
0.30311984 0.06712678 0.15737832 -0.1353162 -0.12780896 0.07812338 0.25158352 0.062248934
-0.524728 -0.33276883 -0.34252992 -0.29125756 -0.32297948 -0.17044926 -0.5079908 -0.6861792
-0.51382136 -0.1685894
00000000: 43ed 273e 1a6f e0bd 4ba1 6dbe bdad 0cbe
00000010: 6b20 8abe 4ad7 893e 9b64 fa3d 967f d7bc
00000020: 26bc 11be c144 87be 48b3 063e 8c39 a83e
00000030: bd6a 8d3e d6e5 843d c289 d73c e8ae 2cbd
00000040: 2bf5 3f3e 6338 9e3e ba6c 043f 67c7 ae3e
00000050: 032f 03be 50ce 87be 5d73 48be bc0d cbbd
00000060: acd0 663d 1151 0bbe 2613 013e 2bd1 0d3d
00000070: e431 31bf 909f 41be a3e4 72bd b780 da3e
00000080: 5d4e 573e 3599 0cbf 8090 b9be 66fa 2bbe
00000090: 837c fc3e 7831 973d cc53 fbbd 7ced 1ebe
000000a0: fe7c 94bc 8489 72bd 3487 603e 9573 01bd
000000b0: 460e bbbd 0e2a 80bd 26c2 fcbd 608d 9b3d
000000c0: abc3 c43c 4ef6 823c ab62 28be bbf8 a6be
000000d0: 4b53 82be 7013 98bd 752b b63e 1001 90bd
000000e0: e82f 83be 7482 bbbc 5a84 0c3f e5cc 763e
000000f0: 30c7 54be f6d0 313e e03d 093f daf5 dd3e
00000100: 4fe4 bfbe d71f a03a 6ea2 323e ae7e c63d
00000110: dab8 d6be 41e7 d0be 14fd 1c3c fe84 6ebd
00000120: 53b2 28be 4ad5 6cbe b4e6 293e f682 913d
00000130: 2d4f ab3e 83a0 aa3e a139 0a3e 61e5 003e
00000140: 3fec bfbe d11b 0bbe 51e6 623d 6cc3 f63d
00000150: 5988 703d 5058 fbbe 8cfb 03bf ad99 98be
00000160: ee5d 7cbe 9d59 11bd fb06 143d 68e6 bebe
00000170: 79b4 9bbe 6509 32be 1628 4ebe 8914 633e
00000180: 456e a03e 7517 a83d 9f37 a3bd 771e 01be
00000190: 833b 123e 5392 b2bc 86a4 0b3e bd33 f23d
000001a0: acc1 193c 9f04 b9be df3c 803e 96aa d53e
000001b0: 6b39 9a3e d83a 493e 2489 f2bd 8815 f83e
000001c0: 6bbc dd3e 2ae0 c0be 9430 ddbd eb46 3b3e
000001d0: fc5d 9d3e 37dd 873d cddd eabe 39b3 94be
000001e0: e501 d0bd 8c01 9fbd 57f1 33bd b868 92be
000001f0: 26d2 023e 1818 6fbe 0293 babe 0716 a0bd
00000200: 01ae 223e df87 9f3e b184 4abe fec7 ec3d
00000210: 84d3 be3e fa85 903e 3d76 1d3d a8de a63e
00000220: bb3c 943e 00fc 30bd 0c2d 68be 6abe adbe
00000230: 8c17 443c adb4 74bd d2ef a1be f831 cf3d
00000240: 9016 9b3e f308 ddbd 953b aa3d b465 953d
00000250: de4a 963e e313 023e 26d9 82bd 2b81 073e
00000260: 069d c4bd a6d2 04be e58b ccbe 28b8 6abe
00000270: fd46 dfbe 4775 90be c445 a5bd 4f46 b1be
00000280: 5e4b 22be 0e92 0cbe 9243 32bd ab31 b73c
00000290: 50f8 84be 9441 453e 9a8b 1f3c af2e 983d
000002a0: 6293 423b fcac d0bc 7ed5 603e 9953 b43e
000002b0: 3749 763e 1278 d33e 024c eb3e 1cc4 643e
000002c0: 8472 463e e9f0 aa3d b166 4cbe cd1a 21be
000002d0: 3680 583e 5ba6 4e3e a6aa 48be e604 03bf
000002e0: 820a e2be d7e4 e6bc c442 0abf 7d9a 6ebf
000002f0: 55ff d4be 257b 36bc 35d8 ccbe 7f58 2dbf
00000300: 4c9c 8bbe fa9c 313e 0b25 023f d580 fcbd
00000310: 750b 21bb 63ee 853e 40d2 a33e 6c9c 3b3e
00000320: 672f 00be 791f c6be ad35 623d d111 54bd
00000330: cf51 963e 6019 43bd fb7b 2fbe a4ac 13be
00000340: 84ab 913d f196 8d3e 7ddc 1d3e 1204 ddbc
00000350: a2e7 f3be 3c5f 2cbd 0d26 9a3e dc67 a53e
00000360: 5c90 2e3e 77d7 d2be 782e 7fbe 1730 9d3e
00000370: 7697 04be 5be0 833e 8329 91be 6584 69be
00000380: 513d 603e 1368 84bd 8e7f e83d 712d 673e
00000390: 694b 4a3e 8fe2 a33e 5790 8dbc 1eb9 ba3c
000003a0: 8632 9b3e c479 893d c827 213e 5490 0abe
000003b0: 5ae0 02be 27ff 9f3d 8ecf 803e bdf8 7e3d
000003c0: 9354 06bf ad60 aabe 1560 afbe b61f 95be
000003d0: 915d a5be 408a 2ebe af0b 02bf 71a9 2fbf
000003e0: cc89 03bf b3a2 2cbe

conv1.bias f4 [10]
0.57869595 -0.0029817906 -0.5158477 -0.7470227 -0.74118817 -0.11452118 -0.1711021 -1.0906001
-0.115709804 -0.58883023
00000000: 6b25 143f 256a 43bb 980e 04bf e13c 3fbf
00000010: 82be 3dbf 158a eabd 6435 2fbe c998 8bbf
00000020: 43f9 ecbd 94bd 16bf

bn1.weight f4 [10]
1.0681071 1.0368097 1.0577747 1.076657 0.83640283 0.8703651 0.9842662 1.6363217
1.0045495 1.2360597
00000000: bcb7 883f 2eb6 843f 2965 873f e6cf 893f
00000010: 7f1e 563f 3fd0 5e3f dff8 7b3f fd72 d13f
00000020: 1495 803f 3437 9e3f

bn1.bias f4 [10]
0.6185944 -0.5017728 0.4901377 -0.22796117 0.339325 0.46493807 -0.108150296 -0.12859225
0.008258633 0.0781925
00000000: 345c 1e3f 2f74 00bf 54f3 fa3e a76e 69be
00000010: 02bc ad3e 5d0c ee3e e77d ddbd b0ad 03be
00000020: 384f 073c 6423 a03d

bn1.running_mean f4 [10]
1.3104227 0.53491396 0.08479638 -0.2819352 0.13740054 0.47676548 0.5450234 0.21227148
0.36246133 0.372795
00000000: eebb a73f 1ff0 083f b9a9 ad3d cf59 90be
00000010: bab2 0c3e 9b1a f43e a786 0b3f b25d 593e
00000020: 8894 b93e fcde be3e

bn1.running_var f4 [10]
3.2125018 1.5209947 2.1301894 1.1133358 4.6331644 2.2033424 3.158575 1.9248978
1.2678285 2.5458791
00000000: a199 4d40 f4af c23f 0655 0840 ca81 8e3f
00000010: e242 9440 9003 0d40 1826 4a40 0d63 f63f
00000020: 3448 a23f afef 2240

conv2.weight f4 [20, 10, 5, 5]
0.021451235 -0.045747433 -0.12038102 -0.010536951 -0.15233442 -0.10276611 -0.10259222 -0.0447738
0.13789909 -0.17848581 -0.00783712 -0.13665205 0.08174806 0.13151066 0.063306935 -0.20505759
-0.20441301 -0.017572803 -0.24119915 -0.06272345 -0.18656099 -0.049679108 0.22072987 0.14763534
0.103700176 -0.08247729 -0.0390873 0.2912264 0.16667873 -0.14624557 0.050403237 -0.09755222
0.3937004 0.17650513 -0.013075953 -0.04229826 0.04257164 0.40375397 -0.021246223 0.30618957
-0.00046767757 0.10821147 0.31364548 -0.3020676 0.15759397 0.175538 0.15791129 0.20319785
0.01943005 0.017018642 0.17411064 -0.09202587 -0.046622418 -0.07750479 0.36411947 -0.25018743
0.07883792 0.04580589 -0.04242888 0.59137005 -0.07920354 0.15357196 0.052224755 0.2128087
0.45903832 0.012270961 0.13433221 -0.07171403 0.20404917 -0.02299661 0.25471437 -0.10287754
-0.089918524 -0.002954534 -0.059046444 -0.17647058 -0.0380104 -0.20825402 -0.23215747 -0.0105911605
0.1275882 0.07478511 -0.13168857 -0.1128028 -0.062622644 -0.002258364 -0.06288697 -0.30449077
-0.18528219 0.007231229 0.109299965 -0.079549365 -0.26280287 0.055289384 0.21778932 -0.055991367
-0.12706454 -0.17144321 -0.1537467 0.13228543 -0.033945937 -0.03772926 0.16031349 -0.051526092
-0.110741355 -0.08412259 0.0011986898 0.20521943 -0.088564835 0.23717591 -0.20831442 0.11263569
0.16803034 -0.1713361 0.2811861 -0.027031476 0.11943367 0.13291763 0.046114307 0.085469484
0.020029068 -0.037877034 0.062276874 -0.11175813 -0.12732677 0.13702111 0.23762709 -0.20802797
-0.15695724 -0.056429677 -0.05034494 0.11367421 -0.11756664 -0.22377129 0.04974467 0.035271544
0.25070694 -0.13389567 -0.10328495 0.27580026 -0.012787905 0.2794672 -0.23140463 -0.08833108
0.03645007 0.11908338 -0.089710094 -0.21205804 0.037293363 -0.044865217 -0.057941373 0.08050371
-0.033503443 -0.095962405 -0.023082074 -0.0075517185 0.0074800802 0.11786621 0.06704442 0.11887618
-0.120977566 0.058347426 -0.02716509 -0.04195469 0.15516126 -0.027853 0.11087178 -0.066058405
-0.070232294 0.16820167 -0.16074184 0.028057171 -0.14410937 -0.03855044 0.24469222 -0.10489509
0.07326777 -0.18914981 0.20674439 0.58669275 0.12062337 -0.12764953 -0.19000538 0.52553177
0.16014484 -0.058486097 -0.0522986 0.17289759 0.19777805 -0.097858876 -0.07996563 -0.0003078198
0.15784737 0.019258227 0.27834046 -0.06605314 -0.22353989 -0.26871583 -0.19975339 0.046862226
0.29686773 0.040132456 -0.17069612 0.29315326 0.024020694 0.24172202 0.025561284 -0.33855623
0.2507149 -0.20385772 0.15126231 0.0789986 -0.10697634 0.19675261 -0.08546202 0.12257052
0.09744774 -0.28083476 -0.020583915 -0.20340806 0.15398137 0.07787603 -0.13827343 -0.11572672
-0.06484808 0.024047107 -0.11436532 -0.235314 -0.20266107 0.044511348 -0.028813232 -0.24325584
-0.16914414 -0.39672324 -0.070011646 -0.26098233 -0.20898211 -0.30335099 -0.26060995 0.08565656
-0.37393442 -0.32634398 -0.389272 -0.11221186 0.10223661 -0.29586217 -0.19430523 -0.2811847
0.04015603 0.31748685 -0.008732045 0.17155115 0.043949198 -0.018157773 0.13924843 0.017870016
00000000: 80ba af3c a961 3bbd 538a f6bd 2da3 2cbc
00000010: 8efd 1bbe 0a77 d2bd df1b d2bd bb64 37bd
00000020: 6b35 0d3e fcc4 36be 4467 00bc 84ee 0bbe
00000030: 876b a73d bbaa 063e 11a7 813d 9efa 51be
00000040: a551 51be d7f4 8fbc e9fc 76be 2775 80bd
00000050: d809 3fbe 527c 4bbd 0307 623e b82d 173e
00000060: c260 d43d dae9 a8bd 011a 20bd a01b 953e
00000070: d4ad 2a3e 66c1 15be a073 4e3d 75c9 c7bd
00000080: 1993 c93e c3bd 343e 863c 56bc f140 2dbd
00000090: 9a5f 2e3d d7b8 ce3e 8f0c aebc e1c4 9c3e
000000a0: 9f32 f5b9 fa9d dd3d 2496 a03e 9ba8 9abe
000000b0: 5060 213e 3cc0 333e 7fb3 213e 1913 503e
000000c0: c52b 9f3c ae6a 8b3c 0f4a 323e 0f78 bcbd
000000d0: 26f7 3ebd d5ba 9ebd de6d ba3e 9118 80be
000000e0: c775 a13d f59e 3b3d e8c9 2dbd 0764 173f
000000f0: 7735 a2bd f841 1d3e a0e9 553d 86ea 593e
00000100: 1207 eb3e 240c 493c 628e 093e cede 92bd
00000110: 44f2 503e 6363 bcbc ec69 823e 76b1 d2bd
00000120: 3427 b8bd dba0 41bb afda 71bd b4b4 34be
00000130: cbb0 1bbd 8b40 55be b0ba 6dbe 8c86 2dbc
00000140: 7ba6 023e f028 993d 5ed9 06be 2805 e7bd
00000150: 4d40 80bd 1001 14bb e2ca 80bd 37e6 9bbe
00000160: 9dba 3dbe f2f3 ec3b a9d8 df3d c7ea a2bd
00000170: 198e 86be 1f77 623d 2a04 5f3e 3457 65bd
00000180: 351d 02be cf8e 2fbe c66f 1dbe d575 073e
00000190: e50a 0bbd ff89 1abd 3829 243e 060d 53bd
000001a0: 5dcc e2bd 7748 acbd 5b1d 9d3a 0b25 523e
000001b0: 7b61 b5bd 3ede 723e 6050 55be 8aad e63d
000001c0: 2510 2c3e bb72 2fbe a0f7 8f3e 1d71 ddbc
000001d0: a499 f43d 8f1b 083e 5be2 3c3d a00a af3d
000001e0: 0014 a43c f324 1bbd 0916 7f3d 72e1 e4bd
000001f0: f361 02be 434f 0c3e 8454 733e 4905 55be
00000200: 66b9 20be ce22 67bd 7f36 4ebd 06ce e83d
00000210: c7c6 f0bd 4d24 65be 11c1 4b3d e578 103d
00000220: a95c 803e f21b 09be 0f87 d3bd b135 8d3e
00000230: 5c84 51bc 5316 8f3e 56f5 6cbe ede6 b4bd
00000240: ab4c 153d fde1 f33d edb9 b7bd be25 59be
00000250: edc0 183d 97c4 37bd ef53 6dbd 21df a43d
00000260: e83a 09bd f087 c4bd 9e16 bdbc 6874 f7bb
00000270: 761b f53b d763 f13d 964e 893d 5b75 f33d
00000280: 16c3 f7bd b6fd 6e3d 5389 debc aed8 2bbd
00000290: 98e2 1e3e fa2b e4bc be10 e33d a149 87bd
000002a0: f3d5 8fbd 0f3d 2c3e 8299 24be 27d8 e53c
000002b0: 6891 13be 11e7 1dbd 9990 7a3e 3dd3 d6bd
000002c0: 6a0d 963d 7db0 41be cdb4 533e 7f31 163f
000002d0: 6309 f73d 8fb6 02be c590 42be 4089 063f
000002e0: 02fd 233e 1e8f 6fbd 0f37 56bd 110c 313e
000002f0: 5486 4a3e 3c6a c8bd 05c5 a3bd e062 a1b9
00000300: bea2 213e 6ec3 9d3c a482 8e3e de46 87bd
00000310: a4e7 64be 1f95 89be 278c 4cbe 9bf2 3f3d
00000320: 0cff 973e ee61 243d f7ca 2ebe 2f18 963e
00000330: 0cc7 c43c fa85 773e e665 d13c 3e57 adbe
00000340: b45d 803e 14c0 50be 82e4 1a3e 05ca a13d
00000350: 6916 dbbd 8479 493e b606 afbd 4106 fb3d
00000360: ae92 c73d 93c9 8fbe 999f a8bc 344a 50be
00000370: 4bad 1d3e 787d 9f3d 8d97 0dbe 2102 edbd
00000380: 12cf 84bd 70fe c43c 5d38 eabd 27f6 70be
00000390: 6286 4fbe 8851 363d ba09 ecbc 0f18 79be
000003a0: 1f34 2dbe 4f1f cbbe 4462 8fbd 7a9f 85be
000003b0: 68ff 55be d250 9bbe ab6e 85be b56c af3d
000003c0: 5574 bfbe 8f16 a7be a94e c7be 55cf e5bd
000003d0: 6e61 d13d 3f7b 97be f3f7 46be 71f7 8fbe
000003e0: a67a 243d a38d a23e da10 0fbc 1bab 2f3e
000003f0: 1304 343d 9cbf 94bc 2497 0e3e 2464 923c

conv2.bias f4 [20]
-0.6132564 -0.28188732 0.1917737 -0.71748173 -0.41922307 -0.7396371 -0.37355825 -0.38907275
-0.09287397 -0.5613005 -0.31931305 -0.337675 -0.67682534 -0.050262574 -0.086520955 0.06591469
-0.9368109 -0.5708326 -0.6306571 -0.04635325
00000000: 5ffe 1cbf 8953 90be 5360 443e e2ac 37bf
00000010: 68a4 d6be db58 3dbf 0743 bfbe 8b34 c7be
00000020: b534 bebd 64b1 0fbf 007d a3be bde3 acbe
00000030: 6d44 2dbf 21e0 4dbd e631 b1bd 48fe 863d
00000040: d7d2 6fbf 1622 12bf be72 21bf e8dc 3dbd

bn2.weight f4 [20]
0.3336022 0.43245572 0.5873632 0.6134925 0.51078117 0.9262471 0.64327776 0.4018676
0.41217217 0.6363256 0.51132435 0.67388916 0.47144598 0.6670051 0.19962135 0.32986635
0.65323174 0.47621396 0.5645944 0.5017311
00000000: e8cd aa3e d66a dd3e 6f5d 163f d80d 1d3f
00000010: 8ec2 023f 881e 6d3f daad 243f 97c1 cd3e
00000020: 3b08 d33e 3ce6 223f 27e6 023f 0084 2c3f
00000030: 5e61 f13e d9c0 2a3f 8a69 4c3e 3ee4 a83e
00000040: 323a 273f 51d2 f33e 4289 103f 7371 003f

bn2.bias f4 [20]
0.029291818 0.018377032 0.06496773 0.06977093 0.05888325 0.12878692 0.07517895 0.00917844
0.029898306 0.096166626 -0.0017952563 0.07122487 0.0019902978 0.05649051 0.056819603 0.018266324
0.093393005 0.086163945 0.05300088 0.037780985
00000000: 65f5 ef3c 6e8b 963c cd0d 853d 10e4 8e3d
00000010: 902f 713d b8e0 033e 6cf7 993d 2b61 163c
00000020: 4bed f43c 02f3 c43d ce4e ebba 58de 913d
00000030: a86f 023b 9862 673d acbb 683d 42a3 953c
00000040: d544 bf3d b976 b03d 7317 593d 3cc0 1a3d

bn2.running_mean f4 [20]
5.559264 6.582934 11.363645 6.1165037 1.9632945 0.52044415 12.708684 6.715999
3.3428307 3.6817887 4.7961235 9.483419 1.0613707 2.7354376 7.1938562 7.9493937
5.176809 3.4016137 8.871727 -0.16654582
00000000: 7ee5 b140 65a7 d240 7dd1 3541 66ba c340
00000010: 3c4d fb3f d43b 053f c556 4b41 77e9 d640
00000020: f0f0 5540 6da2 6b40 d879 9940 16bc 1741
00000030: ffda 873f 6911 2f40 1234 e640 6f61 fe40
00000040: 6ba8 a540 0ab4 5940 98f2 0d41 fd8a 2abe

bn2.running_var f4 [20]
38.37107 62.274338 96.80021 66.763695 36.08381 28.481974 110.7353 53.62049
27.89323 56.164948 40.56699 101.303635 28.582893 35.066616 45.18722 34.97825
72.789604 46.52194 101.929245 11.449202
00000000: fa7b 1942 ec18 7942 b599 c142 0387 8542
00000010: d255 1042 15db e341 7978 dd42 627b 5642
00000020: 5625 df41 e8a8 6042 9944 2242 769b ca42
00000030: c4a9 e441 3744 0c42 b7bf 3442 bae9 0b42
00000040: 4794 9142 7716 3a42 c6db cb42 ee2f 3741

fc1.weight f4 [50, 320]
-0.36864161 -0.21729104 -0.11522769 0.20799382 0.15823603 -0.1332741 -0.066794865 0.19904563
0.3012288 0.31158504 -0.10633659 -0.021778552 0.39884 0.18389042 -0.0840848 0.11163533
-0.15314974 -0.25776875 0.0007645675 0.16062585 -0.36997965 -0.122235306 0.012545553 -0.022798121
0.12395498 0.13059555 0.22460179 0.20026238 -0.21628204 -0.24416645 0.027079584 0.13313372
-0.14763962 -0.2575054 -0.27352378 -0.027164884 -0.24603477 0.039259154 0.09918492 0.218109
0.26647142 -0.16047871 -0.25322625 -0.12970097 -0.115525216 -0.15962566 0.14109826 0.16333309
-0.18489107 -0.2875571 -0.20821472 0.13273072 0.16367166 0.26741946 0.065939 0.41235268
0.116960354 -0.36859384 -0.27502832 -0.12163734 -0.023862012 -0.33651897 -0.37665161 -0.42926034
-0.060469404 -0.23286413 0.029350135 0.012357692 -0.3093916 -0.2064542 -0.07484395 0.104922704
0.06738988 -0.13589263 -0.066683725 0.1903407 0.06531322 -0.23002943 0.29085657 -0.03529608
0.33602735 0.40244716 0.08996336 0.027406747 -0.34615898 -0.17902634 0.12794864 -0.067958586
-0.271442 -0.4942383 -0.09075854 -0.22886182 -0.47802714 -0.34036037 0.07270698 -0.29550806
-0.22384834 0.018826049 0.042896353 0.30892283 0.29543847 -0.23030728 -0.52598035 -0.11228573
-0.1197881 -0.28128356 -0.18178812 -0.15806533 -0.03889169 -0.4738033 -0.65058416 -0.7396734
-0.06707368 -0.29997697 -0.321904 0.035309907 -0.057727404 -0.0141470255 0.053755186 0.23340106
0.2940532 0.3885441 -0.2015954 0.20530044 -0.07248926 -0.10268183 0.056288943 0.05614977
0.033237565 -0.10662424 -0.24999742 -0.1454116 0.12823968 0.22233957 -0.01653289 0.06887048
0.1792312 0.04435154 0.05115078 0.2071195 0.14747752 -0.08603302 -0.07126086 -0.18463546
-0.08958646 -0.27227813 -0.055727605 -0.004687162 -0.034721658 0.25216988 0.23984472 0.22232035
0.04210368 -0.2055224 0.061074883 0.18188563 0.24537425 -0.03826237 0.20527902 -0.15108271
-0.21968058 0.024742609 -0.083319016 -0.016657433 0.010349156 -0.091288455 -0.04463119 0.14393206
0.41542768 0.27493918 0.26970503 -0.07364293 0.26838768 0.6204968 0.31677875 0.064069435
-0.11548277 -0.5604658 -0.33021048 0.19325332 -0.32417893 -0.08246321 0.13227426 0.18423724
0.37340394 0.4072536 -0.079357274 0.19332224 0.36235407 0.3695354 0.09441147 0.37456185
-0.18692237 -0.08580643 -0.19602513 -0.075402744 -0.11218004 0.16071735 0.032475606 0.01736975
0.06881764 0.024947165 -0.15012674 -0.059813865 -0.18361606 -0.036812402 0.08886505 0.119921364
0.14562175 -0.04986606 -0.078800105 -0.055363152 0.32039303 0.32724983 0.16140288 0.114641085
0.16325524 0.34816512 0.1922428 0.3944559 0.2980959 0.2648421 -0.13248077 0.13625525
0.15703611 -0.107717305 -0.1550195 0.25175348 0.063632555 -0.2491066 -0.33631667 0.022461548
-0.10354279 0.03455899 -0.14182971 -0.050285026 0.100609444 -0.015693236 -0.6139295 -0.105758384
-0.012829832 -0.115736775 -0.3912504 -0.2993581 -0.19506288 -0.13233526 -0.14415649 -0.061747827
0.1704467 0.17887816 -0.141511 0.041553352 0.11485127 -0.01970045 -0.25579154 -0.11399502
00000000: 98be bcbe 8b81 5ebe 7ffc ebbd 55fc 543e
00000010: a008 223e 0179 08be bfcb 88bd 9ed2 4b3e
00000020: a93a 9a3e 1388 9f3e 00c7 d9bd ef68 b2bc
00000030: c234 cc3e c54d 3c3e a734 acbd 10a1 e43d
00000040: 49d3 1cbe 44fa 83be 426d 483a 1a7b 243e
00000050: f96d bdbe 8156 fabd dd8b 4d3c 20c3 babc
00000060: 1cdc fd3d d7ba 053e 03fe 653e 9511 4d3e
00000070: 0a79 5dbe c506 7abe 01d6 dd3c 3554 083e
00000080: d72e 17be bfd7 83be 4f0b 8cbe e488 debc
00000090: 8af0 7bbe 35ce 203d 7721 cb3d f757 5f3e
000000a0: f16e 883e 8854 24be dfa6 81be 55d0 04be
000000b0: 7c98 ecbd e974 23be 107c 103e ca40 273e
000000c0: 1654 3dbe af3a 93be 3d36 55be 90ea 073e
000000d0: 8b99 273e 34eb 883e 070b 873d e41f d33e
000000e0: e988 ef3d 55b8 bcbe 83d0 8cbe ff1c f9bd
000000f0: 447a c3bc 374c acbe 7bd8 c0be 03c8 dbbe
00000100: c4ae 77bd ef73 6ebe b26f f03c eb77 4a3c
00000110: 9368 9ebe bb68 53be c947 99bd b7e1 d63d
00000120: b503 8a3d 7027 0bbe 7a91 88bd ace8 423e
00000130: f0c2 853d d68c 6bbe 27eb 943e 9f92 10bd
00000140: c70b ac3e 8e0d ce3e b63e b83d 1d84 e03c
00000150: c03b b1be ae52 37be f804 033e df2d 8bbd
00000160: 72fa 8abe cd0c fdbe 9ddf b9bd c15a 6abe
00000170: f9bf f4be b743 aebe 66e7 943d d54c 97be
00000180: 8038 65be 1639 9a3c 16b4 2f3d 222b 9e3e
00000190: b643 973e acd5 6bbe a6a6 06bf 10f6 e5bd
000001a0: 7753 f5bd 6604 90be aa26 3abe e1db 21be
000001b0: e54c 1fbd 5996 f2be af8c 26bf 3c5b 3dbf
000001c0: ed5d 89bd 9596 99be 9ad0 a4be 1fa1 103d
000001d0: 9273 6cbd edc8 67bc 662e 5c3d b000 6f3e
000001e0: 248e 963e 41ef c63e 066f 4ebe 473a 523e
000001f0: 4075 94bd da4a d2bd 3c8f 663d 4dfd 653d
00000200: 1d24 083d cf5d dabd 53ff 7fbe c7e6 14be
00000210: 4351 033e fcac 633e fc6f 87bc f70b 8d3d
00000220: 6288 373e f6a9 353d 7b83 513d 2217 543e
00000230: 5904 173e 1432 b0bd 37f1 91bd 1411 3dbe
00000240: 1b79 b7bd 0a68 8bbe a142 64bd c496 99bb
00000250: 4c38 0ebd 691c 813e db99 753e f2a7 633e
00000260: e974 2c3d 7774 52be a829 7a3d 3a40 3a3e
00000270: 6343 7b3e 01b9 1cbd aa34 523e 6db5 1abe
00000280: f2f3 60be 03b1 ca3c 29a3 aabd 2b75 88bc
00000290: 828f 293c 71f5 babd 32cf 36bd ed62 133e
000002a0: f0b2 d43e d4c4 8c3e c716 8a3e 1bd2 96bd
000002b0: 1c6a 893e e1d8 1e3f d330 a23e d636 833d
000002c0: 3b82 ecbd b07a 0fbf 5911 a9be 33e4 453e
000002d0: c8fa a5be 79e2 a8bd e772 073e b0a8 3c3e
000002e0: cd2e bf3e 8b83 d03e 1186 a2bd 44f6 453e
000002f0: 7986 b93e be33 bd3e cd5a c13d 92c6 bf3e
00000300: 9468 3fbe 48bb afbd d0ba 48be c16c 9abd
00000310: a6be e5bd 1793 243e 2405 053d 024b 8e3c
00000320: 43f0 8c3d ff5d cc3c d3ba 19be 62ff 74bd
00000330: d905 3cbe 9ac8 16bd e1fe b53d 5599 f53d
00000340: de1d 153e 5b40 4cbd f361 a1bd 79c4 62bd
00000350: 8e0a a43e 4a8d a73e cc46 253e f2c8 ea3d
00000360: 622c 273e b342 b23e 4cdb 443e 20f6 c93e
00000370: 07a0 983e 6299 873e 0aa9 07be 7f86 0b3e
00000380: 13ce 203e e49a dcbd 6fbd 1ebe d5e5 803e
00000390: c951 823d cd15 7fbe b331 acbe 4801 b83c
000003a0: 3e0e d4bd ba8d 0d3d cf3b 11be acf7 4dbd
000003b0: 530c ce3d 1a8f 80bc 7c2a 1dbf da97 d8bd
000003c0: 3734 52bc 6707 edbd f951 c8be 7745 99be
000003d0: 90be 47be e582 07be c29d 13be 4aeb 7cbd
000003e0: 9489 2e3e d62b 373e 42e8 10be d933 2a3d
000003f0: 2537 eb3d d762 a1bc 1cf7 82be 3976 e9bd

fc1.bias f4 [50]
-0.08396303 0.0922198 -0.09337904 -0.123471856 -0.05286209 -0.027501183 -0.077448435 -0.2058033
0.004342586 0.0041173995 -0.16228285 -0.068577826 -0.021425834 -0.10706586 -0.15748629 -0.24113297
-0.097707346 -0.13154952 -0.1546635 -0.2902527 -0.18158777 -0.02098163 -0.18692337 0.056274127
0.05377879 -0.14790538 -0.23496994 0.06784932 -0.20126757 -0.13374825 -0.14385517 -0.25720057
-0.19600889 -0.3708942 -0.040790435 -0.07188937 -0.23866707 -0.15347187 -0.15589455 -0.2003922
0.10188135 -0.054036 -0.105391964 -0.24619028 -0.25865108 -0.010686258 -0.19019808 -0.19479828
-0.10934705 -0.085873745
00000000: cff4 abbd bcdd bc3d 833d bfbd d0de fcbd
00000010: eb85 58bd 294a e1bc 499d 9ebd 1abe 52be
00000020: 404c 8e3b 40eb 863b 7a2d 26be 8872 8cbd
00000030: 3b85 afbc 5845 dbbd 1644 21be 90eb 76be
00000040: ca1a c8bd ebb4 06be 1c60 1ebe 009c 94be
00000050: 25f2 39be abe1 abbc d768 3fbe b37f 663d
00000060: 2647 5c3d 8274 17be f69b 70be 96f4 8a3d
00000070: 1619 4ebe 4df5 08be c54e 13be cbaf 83be
00000080: 8eb6 48be d8e5 bdbe df13 27bd bc3a 93bd
00000090: 2465 74be bb27 1dbe d2a2 1fbe 9d33 4dbe
000000a0: 2ba7 d03d da54 5dbd bed7 d7bd 4e19 7cbe
000000b0: ea6d 84be 6a15 2fbc 49c3 42be 3379 47be
000000c0: 59f1 dfbd 93de afbd

fc2.weight f4 [10, 50]
0.22967228 -0.046632916 0.02444885 -0.029554298 -0.21402249 0.09566217 -0.32699928 -0.060003955
-0.27341077 -0.14501593 -0.16232817 -0.015817294 -0.010708751 0.07142837 0.33519745 0.08409344
0.09218877 0.14805269 -0.070007354 0.08101303 -0.2328349 -0.042639032 0.008936503 -0.15094881
0.05600074 -0.36615813 -0.14495641 -0.18712392 -0.0012669527 0.168104 -0.064066954 0.2442586
0.2928623 0.05349813 -0.31331035 0.032878596 -0.054340575 -0.08859044 -0.04262521 -0.13300483
-0.291328 -0.22355661 0.10534997 -0.115074955 0.19986397 0.19664933 -0.17906383 0.0019411629
-0.044451464 0.08917237 0.27570257 0.002022499 -0.023695404 0.20527066 0.23906516 0.18936846
-0.1469886 0.0052489094 -0.092148654 0.03684648 0.073384784 0.18842103 -0.082894534 -0.070828274
-0.10790797 -0.44388458 0.1712026 0.0042760656 -0.10429802 -0.14401565 -0.10831329 0.1209118
0.13000438 0.026578264 0.17902891 -0.4390827 -0.42228428 0.28922528 -0.07872184 0.124978915
0.1285105 0.17167847 -0.19169582 -0.13824202 0.25491583 -0.11354762 -0.10696021 0.10553357
-0.033973016 0.22063643 -0.009602757 0.16998287 -0.039822347 -0.14560999 0.26996824 -0.064151734
-0.13327739 0.1237741 -0.108270645 0.18881932 -0.39475483 -0.029588688 -0.20784888 -0.13832365
-0.06181043 0.25105497 0.19733505 -0.11441035 0.27753118 0.045425124 -0.010502272 0.23703349
0.21491008 0.38871902 -0.039688926 0.10807099 -0.2420169 0.13417119 -0.08906182 -0.051993582
-0.17079596 0.019048316 -0.06261268 -0.07832984 -0.21683991 -0.14173107 -0.14887293 0.06501285
-0.2534912 0.12034643 -0.14349474 0.1260598 -0.12607053 -0.12167874 0.00519618 0.17675081
0.111247815 -0.20725517 0.20999417 0.072803505 0.17185724 0.15499596 -0.20035811 -0.0759807
0.11477011 0.16557786 0.26288125 0.05464203 -0.05149893 0.20875141 -0.13140287 0.1027454
0.08892259 -0.19511293 -0.10433102 -0.118847005 0.045386802 0.13679554 0.0069601242 -0.14030482
-0.20991783 0.21998762 -0.011446108 -0.3220376 -0.09237842 -0.14889587 -0.13324 -0.063155815
-0.09292981 0.19528702 0.13924147 0.10700224 0.029184738 0.063086726 -0.15753989 -0.24143378
0.046742633 -0.2506364 0.25134873 -0.2749451 -0.36319026 -0.06427129 -0.10369308 0.17193699
0.17627396 0.05782017 0.11208405 0.077141926 -0.22926618 -0.0071864794 -0.10261084 0.21586527
-0.24070023 0.05720138 -0.26429182 -0.17400146 -0.11922091 -0.18604918 -0.01419987 0.20045264
-0.0043200483 0.078989826 0.07363611 0.25434557 0.0839237 0.29810807 0.08087482 -0.047949124
-0.12093202 -0.017586969 0.09652566 0.09510606 0.2480642 0.06251061 0.17636546 0.26652783
-0.13988662 -0.23044753 0.116886005 -0.33822232 -0.17730173 -0.17177565 0.19225912 0.26736692
0.17177662 0.19529054 0.05200704 0.07829846 0.048035458 -0.014186492 -0.014699869 -0.17337824
-0.119354054 -0.11077208 -0.13551304 -0.21456814 -0.082696944 0.24973378 0.11018976 0.122483395
0.12958318 0.03931858 -0.26142505 0.0003978114 -0.20432582 0.09749089 -0.30743602 -0.20765401
0.21297532 -0.14730115 0.06509292 -0.16927105 -0.096705824 -0.19715394 0.15321179 -0.03686926
00000000: 362f 6b3e 2802 3fbd f448 c83c db1b f2bc
00000010: b628 5bbe 87ea c33d 736c a7be b5c6 75bd
00000020: 7ffc 8bbe 0e7f 14be 5b39 26be 4593 81bc
00000030: c273 2fbc 0a49 923d 009f ab3e 2e39 ac3d
00000040: 77cd bc3d 209b 173e 0460 8fbd 29ea a53d
00000050: 466c 6ebe 44a6 2ebd 696a 123c 5392 1abe
00000060: 0861 653d 1479 bbbe 746f 14be 6a9d 3fbe
00000070: e10f a6ba 7423 2c3e 8935 83bd ed1e 7a3e
00000080: 0cf2 953e db20 5b3d 376a a0be b5ab 063d
00000090: 3994 5ebd e86e b5bd c697 2ebd 6b32 08be
000000a0: f228 95be 06ec 64be bac1 d73d 6bac ebbd
000000b0: 24a9 4c3e 715e 493e 825c 37be 9e6e fe3a
000000c0: bd12 36bd 01a0 b63d e328 8d3e e78b 043b
000000d0: dd1c c2bc 7932 523e 7fcd 743e cee9 413e
000000e0: 2e84 16be 0bff ab3b 6fb8 bcbd 56ec 163d
000000f0: c34a 963d 71f1 403e 9cc4 a9bd 6a0e 91bd
00000100: dbfe dcbd d744 e3be bc4f 2f3e 3d1e 8c3b
00000110: 339a d5bd d778 13be 5cd3 ddbd 9ba0 f73d
00000120: de1f 053e a9ba d93c 5b53 373e 73cf e0be
00000130: a535 d8be 5615 943e eb38 a1bd f2f4 ff3d
00000140: 4298 033e 7bcc 2f3e e94b 44be 518f 0dbe
00000150: 5484 823e a88b e8bd f40d dbbd fc21 d83d
00000160: 4a27 0bbd 84ee 613e e254 1dbc fd0f 2e3e
00000170: c21c 23bd c91a 15be 4739 8a3e fc61 83bd
00000180: de79 08be 467d fd3d 00bd ddbd da59 413e
00000190: 4e1d cabe fa63 f2bc 56d6 54be b7a4 0dbe
000001a0: ef2c 7dbd 478a 803e 3312 4a3e f94f eabd
000001b0: 9118 8e3e b20f 3a3d b911 2cbc e8b8 723e
000001c0: 6311 5c3e 2e06 c73e db90 22bd 5354 dd3d
000001d0: 47d3 77be 2c64 093e 0b66 b6bd 39f7 54bd
000001e0: 23e5 2ebe 370b 9c3c 143b 80bd 656b a0bd
000001f0: 480b 5ebe f321 11be 2572 18be 7525 853d
00000200: 99c9 81be 3078 f63d 49f0 12be d215 013e
00000210: a218 01be b432 f9bd b844 aa3b 2afe 343e
00000220: e5d5 e33d b33a 54be b608 573e 011a 953d
00000230: 58fb 2f3e 43b7 1e3e ad2a 4dbe c59b 9bbd
00000240: 970c eb3d 3e8d 293e 5f98 863e 52d0 5f3d
00000250: 8bf0 52bd eec2 553e 798e 06be 2e6c d23d
00000260: 0c1d b63d afcb 47be 80ab d5bd 0f66 f3bd
00000270: 83e7 393d 2114 0c3e c111 e43b 11ac 0fbe
00000280: b3f4 56be 6f44 613e 7588 3bbc 1de2 a4be
00000290: e630 bdbd 2978 18be 1170 08be d657 81bd
000002a0: fc51 bebd 52f9 473e 5195 0e3e fe23 db3d
000002b0: d514 ef3c 9d33 813d 2352 21be 6b3a 77be
000002c0: 3475 3f3d 6a53 80be c8b0 803e 9bc5 8cbe
000002d0: 13f4 b9be aba0 83bd 0a5d d4bd 4010 303e
000002e0: 2981 343e d8d4 6c3d 538c e53d 96fc 9d3d
000002f0: c1c4 6abe 8f7c ebbb a225 d2bd c90b 5d3e
00000300: 1f7a 76be ff4b 6a3d 4251 87be 702d 32be
00000310: 182a f4bd ad83 3ebe 92a6 68bc 7543 4d3e
00000320: 318f 8dbb 6bc5 a13d 87ce 963d 9539 823e
00000330: 30e0 ab3d 9fa1 983e b3a1 a53d 4d66 44bd
00000340: 35ab f7bd 8c12 90bc 3faf c53d f7c6 c23d
00000350: 8b04 7e3e 9005 803d 2699 343e 5676 883e
00000360: 703e 0fbe 70fa 6bbe ee61 ef3d 7a2b adbe
00000370: 968e 35be f5e5 2fbe 93df 443e 51e4 883e
00000380: 36e6 2f3e 3efa 473e 5505 553d f15a a03d
00000390: d4c0 443d 766e 68bc b8d7 70bc 118a 31be
000003a0: e66f f4bd 79dc e2bd eec3 0abe c0b7 5bbe
000003b0: 045d a9bd 36ba 7f3e 2bab e13d 93d8 fa3d
000003c0: 74b1 043e 850c 213d 81d9 85be 5891 d039
000003d0: ca3a 51be 4ea9 c73d 4168 9dbe 41a3 54be
000003e0: 3416 5a3e 1dd6 16be 704f 853d 6455 2dbe
000003f0: b40d c6bd b9e2 49be 8de3 1c3e 3904 17bd

fc2.bias f4 [10]
-0.08188643 0.083990976 -0.018336792 -0.14627823 0.17235518 0.0049733785 -0.25517458 0.0018643945
-0.011767797 -0.12755914
00000000: 13b4 a7bd 7603 ac3d 0a37 96bc f6c9 15be
00000010: e07d 303e b9f7 a23b 3ea6 82be b35e f43a
00000020: b8cd 40bc dd9e 02be
