results/Net.ckpt (torch, 93265 bytes, 16 tensors)

conv1.weight f4 [10, 1, 5, 5]
000000 6f a8 44 3e 62 ca 42 bd f1 cd 53 be 0c 70 bd bd
       0.19204877 -0.04755629 -0.20684029 -0.09249887
000010 72 96 52 be d3 2a 8f 3e 25 f1 6e 3d d3 47 d1 bd
       -0.20565203 0.2796236 0.058335442 -0.102187775
000020 bd 53 61 be ac 0b 94 be cb 44 26 3e 21 e8 b9 3e
       -0.220046 -0.28915155 0.1623718 0.36309913
000030 26 62 88 3e 50 bb 2f 3d 43 3d 4b 3d 38 98 e1 bc
       0.2663738 0.042903244 0.04961897 -0.027538404
000040 e4 f5 8a 3e 12 f4 bd 3e 7e 12 fe 3e 99 ad 9a 3e
       0.27140725 0.37100273 0.49623483 0.3021057
000050 cb 9d c0 bd a7 99 70 be cb a6 44 be 65 51 37 be
       -0.094050966 -0.23496114 -0.19204251 -0.17902143
000060 0a 00 01 3d ee 69 57 be e8 49 04 3e 3c 2d 58 3d
       0.031494178 -0.21036503 0.12918818 0.052777514
000070 2b 65 23 bf f1 5f 1b be 50 9a a5 bd e2 43 f5 3e
       -0.63826245 -0.15173317 -0.080860734 0.47903353
000080 e1 47 16 3e 77 c6 0a bf b6 a9 ba be 1c 95 3d be
       0.14675857 -0.54209083 -0.36457604 -0.18513912
000090 cf 7b 0a 3f ed 31 f0 3d 05 ea c2 bd 1b e2 1d be
       0.54095167 0.117282726 -0.09517292 -0.15418284
0000a0 ad ca 2d bc 04 3c 4d 3c 62 96 8b 3e 92 0f f1 3b
       -0.010607404 0.012526516 0.2726317 0.0073565925
0000b0 7e 27 b3 bd 39 1c 8d bc 4f 95 d6 bc 5a 5c 0c 3e
       -0.08747767 -0.017225372 -0.026194243 0.13707104
0000c0 ff 52 db 3d 67 28 d9 3d 96 73 0a be 97 96 af be
       0.107091896 0.10603409 -0.13520655 -0.34294578
0000d0 04 51 5a be 6c 2d 7e 3c fb de b7 3e a1 6f 85 bd
       -0.21319968 0.015513759 0.35912308 -0.06515432
0000e0 df 41 8e be a4 70 04 3d 2e 3b 1e 3f 5c c4 3c 3e
       -0.2778463 0.032333985 0.6180905 0.1843428
0000f0 10 bd 21 be 16 07 64 3e 0c 38 12 3f 15 c4 ba 3e
       -0.15794778 0.22268328 0.5711677 0.36477724
000100 7c a8 d4 be 59 06 1c 3d 71 63 52 3e 23 c2 f1 3d
       -0.41534793 0.03809199 0.20545746 0.11804607
000110 df 58 d8 be b8 11 d0 be 8c f4 1d bd fc 71 8b bd
       -0.42255303 -0.40638518 -0.038563296 -0.0680885
000120 8e 35 12 be be 14 44 be 1c db 41 3e 0d 1b bd 3d
       -0.14278242 -0.19148538 0.1893124 0.09233675
000130 a1 fe a8 3e 23 00 b5 3e 80 b6 9a 3d ec 00 f6 3d
       0.33006766 0.35351667 0.0755434 0.120118946
000140 99 92 bb be ce 4a 15 be 87 f6 72 3d 93 21 a0 3d
       -0.36635283 -0.14579317 0.059317138 0.07818904
000150 60 77 6d 3d ee f6 ef be b5 b0 06 bf 56 9e 71 be
       0.057975173 -0.4686808 -0.52613384 -0.23595557
000160 61 9b 8e be 24 02 7f bd 54 fd 1b 3d 36 1f ba be
       -0.2785292 -0.0622579 0.03808339 -0.36351937
000170 02 12 85 be 79 08 26 be cc e3 24 be 74 20 70 3e
       -0.259903 -0.1621417 -0.16102523 0.2344988
000180 ad ed a7 3e 67 da db 3d 71 91 3a bd c6 95 8f bd
       0.3279852 0.10735016 -0.04554886 -0.07010989
000190 fa e3 66 3e 7f 7e 2c 3d c2 d2 ab 3d f2 7f 13 3e
       0.22547904 0.042112824 0.08389808 0.14404276
0001a0 5a db e6 3c 78 8c 9f be fd df 8c 3e d5 d0 b5 3e
       0.028180767 -0.31161857 0.2751464 0.3551089
0001b0 4b b8 8b 3e 9b ee 21 3e 70 ef 1e be d5 1c 03 3f
       0.27289042 0.15813677 -0.15521026 0.5121587
0001c0 69 06 d1 3e c2 34 ad be 22 df 82 bd 62 8a 19 3e
       0.40825203 -0.33829314 -0.063902155 0.14994195
0001d0 fc 9a 7b 3e 1c de 25 3b 66 1b cf be 1e cd 82 be
       0.2457084 0.002530939 -0.4045059 -0.25547117
0001e0 07 d7 84 bd 0a 55 a3 bd a3 05 58 bd 4a 1c 8b be
       -0.06486326 -0.07975204 -0.05273975 -0.2717002
0001f0 7c 79 f5 3d 3c db 29 be bf e3 ae be ff 0b d1 bd
       0.11986062 -0.16587538 -0.3415813 -0.10207366
000200 d8 78 79 3e 35 2f 8d 3e 8b fd 27 be 57 74 5a 3d
       0.24362504 0.2757508 -0.16405313 0.053333607
000210 3e 7c b8 3e 37 05 d5 3e 16 44 4e 3d 20 25 9b 3e
       0.3603229 0.4160554 0.0503579 0.30301762
000220 38 dc 6e 3e 50 93 8c bc c8 9a 16 be 81 91 9c be
       0.23326194 -0.017160088 -0.14707482 -0.3057976
000230 a1 09 61 bc f6 bd a8 bd ab 4e a0 be 96 47 51 3e
       -0.013735206 -0.08239357 -0.3131002 0.20437464
000240 61 74 9d 3e 6f 37 ca bd 0d a1 b1 3d aa d1 9a 3d
       0.30752853 -0.09873854 0.08673296 0.075595215
000250 ab c7 a5 3e ec 89 05 3e 7f d3 9f bd a8 27 2d 3e
       0.32378897 0.13040894 -0.078040116 0.16909659
000260 5d 4c c0 bd a8 ee d0 bd 03 14 ae be ae 2d 82 be
       -0.09389565 -0.1020177 -0.33999643 -0.25425476
000270 02 c2 da be 5c ae 93 be e4 2a ea bd d7 b1 bb be
       -0.4272614 -0.28843963 -0.11433962 -0.3665912
000280 7f 83 c2 bd ae 06 6b bd b3 f9 f5 3c 77 79 4a 3d
       -0.09497737 -0.057379417 0.030026292 0.049432244
000290 c2 34 81 be d3 b0 80 3e 97 96 63 3d 86 5b 8b 3d
       -0.25235564 0.25134906 0.055563536 0.06804566
0002a0 70 a8 a1 bc 26 5a 46 3c 53 df 60 3e fa 9f b1 3e
       -0.019733638 0.012106454 0.21960191 0.34692365
0002b0 5d aa 29 3e 00 6b ca 3e df b9 00 3f af 3a 71 3e
       0.16568895 0.3953476 0.50283617 0.23557542
0002c0 82 31 66 3e ad ec 7c 3d 9e a1 89 be f6 e8 15 be
       0.22479823 0.06174915 -0.26881117 -0.14639649
0002d0 66 c5 46 3e 5f 60 63 3e 48 1d 3c be 2b 7b fe be
       0.19411239 0.22204731 -0.18370545 -0.49703345
0002e0 b4 fe 02 bf 22 51 92 bc 62 b0 14 bf e3 8d 67 bf
       -0.51169896 -0.017860953 -0.5808164 -0.90450877
0002f0 40 71 fb be 14 86 66 3a 38 e4 bc be 78 23 1a bf
       -0.4910984 0.0008793783 -0.36892867 -0.6021037
000300 d4 8f b2 be 6d d5 e3 3d cc 34 06 3f d0 73 b4 bd
       -0.34875357 0.11124692 0.5242431 -0.08811152
000310 c9 8a d3 bc b4 2d 4f 3e be ee 9b 3e 53 53 30 3e
       -0.025823014 0.20232278 0.30455583 0.17219286
000320 89 a9 9c bd 11 96 b7 be ba f2 18 3d 02 4a 85 3b
       -0.07649524 -0.3585668 0.037340857 0.0040676603
000330 f9 ff 64 3e cd 17 4a bd 45 82 7b be d5 00 2b be
       0.22363271 -0.049339104 -0.24561413 -0.16699536
000340 53 bf 9e 3d d2 fd 60 3e a5 60 0d 3e 25 21 0a bd
       0.07751336 0.21971825 0.13806398 -0.033723015
000350 a8 35 d1 be c9 f7 7e bc a0 0c 8e 3e fd 3a a9 3e
       -0.4086125 -0.015562006 0.27744007 0.33052817
000360 51 3e 2b 3e 73 59 ce be ac 7c 65 be e5 70 ab 3e
       0.1672299 -0.4030262 -0.2241084 0.3348457
000370 f8 fe 1d be a7 87 69 3e 6a 12 bf be ce 6c 4a be
       -0.15429294 0.22805654 -0.37318736 -0.19768068
000380 9d 61 9d 3e 42 cf a9 bd 1e 76 bb 3d 6b dd 78 3e
       0.30738536 -0.082914844 0.091533884 0.24303214
000390 a9 ec 1f 3e e0 63 94 3e 37 05 0c bc 60 04 0e 3a
       0.15617622 0.2898245 -0.008546165 0.0005417522
0003a0 55 d4 ac 3e ab 54 fc 3d e8 e7 53 3e f0 ba 0f be
       0.33755746 0.12320837 0.20693934 -0.14036155
0003b0 33 06 11 be ea 0b bd 3d 58 4a 79 3e b7 45 b2 3d
       -0.14162521 0.09230788 0.24344766 0.08704703
0003c0 96 81 08 bf cb e5 bc be d3 ef c9 be 84 de b4 be
       -0.5332273 -0.36894068 -0.39440784 -0.35326016
0003d0 9c 7e af be c4 e2 02 be 17 98 f6 be 41 37 29 bf
       -0.34276283 -0.12781817 -0.4816291 -0.66099936
0003e0 ac 98 e5 be b5 74 25 be
       -0.44843042 -0.16157801

conv1.bias f4 [10]
000000 04 5e 2a 3f de 10 04 be 22 98 83 be 37 74 53 bf
       0.66549706 -0.1289706 -0.25702006 -0.82599205
000010 4b 75 3b bf 2d 51 59 be b9 5c b6 be 1a 4a 81 bf
       -0.7322585 -0.21222372 -0.35617617 -1.0100739
000020 69 24 90 3b 3f a8 16 bf
       0.0043988717 -0.58850473

bn1.weight f4 [10]
000000 2a 41 8d 3f 13 2e 83 3f 1c 86 87 3f 4f 12 8c 3f
       1.1035511 1.0248436 1.0587802 1.0943087
000010 43 97 4b 3f 20 8d 58 3f 45 d7 7a 3f 98 8b cc 3f
       0.7952768 0.8459034 0.97984725 1.5980101
000020 c4 28 74 3f 51 21 a2 3f
       0.95374703 1.2666417

bn1.bias f4 [10]
000000 82 f0 2c 3f e1 40 3e bf f6 53 d3 3e 72 7c 84 be
       0.67554486 -0.7431775 0.41274995 -0.25876194
000010 3f 2e de 3e ed 84 05 3f 40 c8 bd bd 0c ae a7 3c
       0.43394658 0.52155954 -0.0926671 0.020468734
000020 01 b8 a8 bd a1 68 4b 3e
       -0.08238221 0.19864132

bn1.running_mean f4 [10]
000000 de 4e b3 3f a2 74 f4 3e 91 1d dc 3e b2 05 cb be
       1.4008443 0.47745234 0.42991307 -0.39652783
000010 47 29 03 3e 71 ba ea 3e 32 75 a1 3e 66 83 9e 3e
       0.12808715 0.45845369 0.31534725 0.30959624
000020 18 f0 02 3f 11 c9 c4 3e
       0.51147604 0.38434651

bn1.running_var f4 [10]
000000 b5 dc 55 40 c1 aa f5 3f cf 15 38 40 3b 69 73 3f
       3.341596 1.9192735 2.876331 0.95082444
000010 f8 22 91 40 6b a3 44 40 8a a1 3a 40 cd 46 f8 3f
       4.5355186 3.0724742 2.9161096 1.9396607
000020 d6 1d a8 3f 25 8e 23 40
       1.3134105 2.5555508

conv2.weight f4 [20, 10, 5, 5]
000000 2e ea 7e 3b 03 af 8f 3d 58 5b 61 3b 2b ef 87 3d
       0.0038896906 0.07015803 0.003438672 0.066374145
000010 13 8f 15 be 9a 16 b9 bd e2 2b eb bc 9a 13 62 bd
       -0.1460536 -0.09037514 -0.028707448 -0.055194475
000020 00 9b c8 3d 42 30 44 be 5c a9 45 bc 47 06 50 be
       0.09795189 -0.19159034 -0.012064304 -0.20314895
000030 9e 56 6b 3c 99 b3 83 3d 33 73 36 3d 4a c8 5f be
       0.014363913 0.0643074 0.044543456 -0.21853748
000040 4d 86 5e be 93 b8 b2 3d b3 f8 9c bd 30 5d e2 bc
       -0.21730919 0.08726611 -0.07664623 -0.027632326
000050 d3 9d 49 be b2 6c b1 bd 4f fa 65 3e fa 24 27 3e
       -0.19689111 -0.0866331 0.22458766 0.16322699
000060 3f c9 e5 3d d5 63 52 be 05 4f c4 3d 49 70 a7 3e
       0.11220025 -0.20545895 0.09585384 0.32702854
000070 5d e5 53 3e 09 4b 5c be ac 9f 4f be 04 24 ea bd
       0.20692964 -0.21512999 -0.20275754 -0.11432651
000080 51 b3 90 3e 44 ad 63 3e 75 1f 02 be 3e 08 3c be
       0.28261808 0.22234064 -0.12707312 -0.18362519
000090 ae 71 ac bc 5b ce c1 3e 63 c5 e1 bc ea 40 87 3e
       -0.0210503 0.3785275 -0.027559942 0.26416713
0000a0 19 90 8a bd a6 78 94 3d 10 cb 9a 3e 25 79 77 be
       -0.06765766 0.07249574 0.3023305 -0.24167307
0000b0 dc d1 03 3d ed 8b ac 3d 03 08 26 3e b2 06 54 3e
       0.03218256 0.08425126 0.16213994 0.20705679
0000c0 d8 cc a9 bd 0c 76 09 be 34 c6 07 3e 6f d7 1e be
       -0.08291024 -0.13423938 0.13259202 -0.15511869
0000d0 70 b5 1f be 43 54 73 3d 1b 78 be 3e 92 1e 5d be
       -0.15596557 0.05940653 0.37201008 -0.21593693
0000e0 09 ba 47 bc 86 89 0e 3e 14 71 e0 3c 48 91 e2 3e
       -0.01219035 0.13919649 0.02739767 0.44251466
0000f0 48 43 45 3d 93 2b 0e 3e 19 9f ae bc 56 4a 8e 3d
       0.048159868 0.1388381 -0.021316098 0.06947772
000100 fd 3d a3 3e ef c3 9f bd 2a e3 69 3d a2 d0 ec bd
       0.3188323 -0.07801043 0.057101406 -0.11563231
000110 3a 49 43 3e 7b 65 5f 3d 56 96 5d 3e 07 2a 6c 3d
       0.19070902 0.05454014 0.2163938 0.057657268
000120 91 17 2e be b9 ab bb 3c b2 08 19 3e 42 07 f1 bd
       -0.17001177 0.022909032 0.14944723 -0.117689624
000130 86 ce 1b bb f3 1d 23 be f8 aa 42 be 0a 5f b9 bd
       -0.002377422 -0.15929393 -0.19010532 -0.090513304
000140 f3 46 c2 3d 73 52 85 3b b3 2f 55 be 1e 79 17 bd
       0.09486189 0.0040686666 -0.20818977 -0.03698074
000150 04 a1 89 3c 6c ef 78 bc 88 c7 79 bd 79 82 b9 be
       0.016800411 -0.015193801 -0.060981303 -0.36232355
000160 59 f5 29 be c1 c3 cf 3c 98 15 22 3e 7e c0 cc bc
       -0.16597499 0.025361897 0.1582855 -0.024994131
000170 ef 80 b2 be 7d 00 bf bd 9f 12 c0 3d e3 75 7e bc
       -0.34863994 -0.09326265 0.09378552 -0.015531036
000180 f6 98 90 bc c8 96 de bd 0d 8c 58 bd 91 8f d9 3d
       -0.017651062 -0.10868603 -0.052867938 0.10623086
000190 37 9a af bd 73 f5 f0 bc 34 7c 91 3d c2 7a 9b bc
       -0.08574336 -0.029413914 0.07103768 -0.018979434
0001a0 a4 46 12 be 54 89 a7 bd 0a 27 66 bc 3e 51 46 3e
       -0.1428476 -0.0818049 -0.014047394 0.19366929
0001b0 10 51 ce 3a ee 44 28 3e ff 4a 1f be b9 c6 fe 3d
       0.0015740711 0.16432545 -0.15555952 0.12440247
0001c0 be 5d 47 3e 93 32 73 be 87 a3 40 3e 5f 02 42 bd
       0.19469354 -0.23749761 0.1881238 -0.047365543
0001d0 67 b5 d9 3d 6f 8c 0d 3e b7 28 93 bc 0e fb d0 3c
       0.10630303 0.13823102 -0.01796375 0.025510337
0001e0 72 b2 e7 bc 02 f4 5e 3d af ec 1f 3d ad 75 7b bd
       -0.028283332 0.054431923 0.03904408 -0.06139152
0001f0 5e 3c 5c bd 85 20 32 3e 93 9e 63 3e 90 2c 86 be
       -0.053768508 0.17395218 0.2222846 -0.26205873
000200 84 d9 86 be e3 b2 93 bd 46 3d 99 3d 4b c2 dd 3d
       -0.26337826 -0.07211854 0.0748239 0.10828074
000210 db 80 22 be ad 60 45 be 88 f6 85 3d ed 48 24 3d
       -0.15869467 -0.1927516 0.06541163 0.04010861
000220 af bc bf 3e ff b7 b0 bd 7d 02 0f be 5e 5d 3f 3e
       0.37448642 -0.086288445 -0.13965793 0.1868796
000230 6b 4c ae bb 2e 24 89 3e 75 ad 82 be d0 dc a4 bd
       -0.0053191683 0.26785415 -0.25522962 -0.08049929
000240 d7 50 ab 3d da 3a 84 3d 17 0a 81 3c 2b 78 20 be
       0.08365028 0.064565375 0.015751882 -0.1567084
000250 ec 08 06 3e 1d 55 9d 3d e9 97 37 3d 09 b8 6e 3e
       0.13089341 0.0768225 0.044822607 0.23312391
000260 fb 4e fe 3d 88 ed f9 bc aa 2b da bd 8d 70 a8 bc
       0.12417408 -0.030508772 -0.106528595 -0.02056148
000270 b8 cf 77 3d 2f ef a6 3d eb e5 0c bd 69 ac 1e bc
       0.06050083 0.081510894 -0.034398954 -0.0096846605
000280 ed a8 24 be be 2a 8a 3c dd 45 8c bd ce 38 93 bd
       -0.16080065 0.016866084 -0.06849263 -0.07188569
000290 78 5a 54 3e 9c 29 63 bd d7 60 24 3e a4 93 06 bd
       0.20737636 -0.055459604 0.16052566 -0.032855645
0002a0 ae 84 b0 bb c8 18 37 3e d6 81 44 bd 74 1b 37 3e
       -0.0053869104 0.17880547 -0.047975384 0.17881566
0002b0 54 44 2c ba 8d b3 65 bb bb a6 00 3e d5 a5 0a be
       -0.0006571461 -0.0035049648 0.12563603 -0.13539822
0002c0 1b e4 f4 bc 91 e1 06 be ad a8 31 bd db fd d0 3e
       -0.029893925 -0.13171984 -0.043373752 0.40818676
0002d0 b0 e5 00 3e af 14 35 bb c3 ff 88 be e9 e1 04 3f
       0.12587619 -0.0027630737 -0.2675763 0.5190721
0002e0 23 a7 04 3e 60 4e a3 bc c9 8d bb bd 4f d2 9a 3e
       0.12954383 -0.019934833 -0.09157903 0.30238578
0002f0 9a 16 9f 3e 87 93 4a 3d 8d 75 a8 3d 2e c1 d4 bd
       0.3107193 0.0494571 0.08225546 -0.103884086
000300 20 97 73 3e e6 9f f9 3d af bb 00 3e 09 46 d7 bd
       0.23788118 0.12188701 0.12571596 -0.10511405
000310 14 6a 51 be da 27 a4 bc 48 60 e8 bd c9 ee f2 3d
       -0.20450622 -0.020038534 -0.11346489 0.11861951
000320 58 c5 8b 3e 0c 86 27 be f4 eb f1 bd 51 99 bc 3e
       0.27299 -0.16359729 -0.118125826 0.3683572
000330 4a c6 7a 3d 44 91 9b 3e 48 0d f3 bd 07 14 ac be
       0.06122426 0.30384266 -0.118677676 -0.3360903
000340 84 ec 88 3e 95 e0 56 be b8 ff 77 3e 5a 12 34 3a
       0.26742947 -0.20984109 0.24218643 0.00068691897
000350 c0 ab 41 be ed 8b 32 3e be 07 07 be 19 63 87 3e
       -0.18913174 0.1743619 -0.13186547 0.26442793
000360 6b 11 77 3d ab b1 72 be f1 3e 05 be 83 4c 67 be
       0.060319345 -0.23700587 -0.13012291 -0.2258778
000370 7c dd 87 3e d1 3f bc 3d 62 db 27 be 03 59 08 be
       0.26536167 0.091918595 -0.16392282 -0.13315205
000380 53 a9 81 bd ba 2b a4 bb 30 cb 0b be 43 79 93 be
       -0.06331124 -0.0050100954 -0.13651729 -0.28803453
000390 0c 37 51 be 0f 49 eb 3c 1c 68 92 3c 04 2a 8b be
       -0.20431155 0.02872136 0.017871909 -0.27180493
0003a0 d6 af 1c be f5 5d 87 be 20 52 c7 3c 49 87 44 be
       -0.15301451 -0.2643887 0.024331152 -0.19192232
0003b0 a4 36 15 be c7 08 a4 be c2 72 95 be 62 fa 7d 3d
       -0.14571625 -0.32037947 -0.29189116 0.06200636
0003c0 bb 5c c2 be 4a 61 9a be 54 54 c6 be aa c7 4c be
       -0.37961373 -0.3015235 -0.38736212 -0.19998041
0003d0 ba 82 fb 3c 75 68 c2 be 6e 05 43 be 00 67 8c be
       0.030701984 -0.3797032 -0.1904504 -0.27422333
0003e0 45 f3 b4 3c 7e 52 b7 3e 91 29 a1 3c 17 3f 29 3e
       0.022088656 0.35805124 0.01967314 0.16527973
0003f0 ed 2c 8c 3d 43 2d 84 3d a8 ec 2f 3e b1 fe 4c bd
       0.068445064 0.064539455 0.17180121 -0.05004758

conv2.bias f4 [20]
000000 97 8a 05 bf 7a 9a 12 be 89 92 09 3e f3 77 6e bf
       -0.52164596 -0.1431674 0.13434805 -0.9315178
000010 2e 77 dd be 30 5e 39 bf df 97 be be f3 57 21 bf
       -0.4325499 -0.72409344 -0.37225243 -0.63024825
000020 65 da bc be b2 23 20 bf 3b 2b 11 be 6c fe df be
       -0.36885372 -0.62554467 -0.14176647 -0.43748796
000030 32 bb ed be 87 2c c5 bd 10 ea 8b be 5e 3f a6 be
       -0.4643188 -0.096276335 -0.27327013 -0.3247022
000040 4e ad 5b bf fc d4 67 bf 2c 15 11 bf bd d2 36 be
       -0.85811317 -0.90559363 -0.5667293 -0.17853828

bn2.weight f4 [20]
000000 48 a5 c0 3e 9e 2b db 3e c3 ca 0e 3f 11 ed 23 3f
       0.376261 0.42806715 0.5577814 0.6403361
000010 e6 63 fc 3e fc fa 5d 3f 9d 27 18 3f 2d df dd 3e
       0.49294966 0.86711097 0.59435445 0.43334332
000020 ef 76 d7 3e 21 49 1d 3f a6 46 e8 3e 22 a0 25 3f
       0.42082927 0.6143971 0.453664 0.6469747
000030 24 31 f4 3e 57 75 20 3f 8e 22 5a 3e 5b a9 cc 3e
       0.4769374 0.62679046 0.21302244 0.39972958
000040 36 75 28 3f 27 d0 e3 3e d3 40 04 3f d4 79 fe 3e
       0.6580385 0.44494745 0.51661414 0.49702322

bn2.bias f4 [20]
000000 9e 02 84 3d 4e fc 2a 3d d5 a0 47 3d 61 b3 80 3d
       0.06445812 0.041744523 0.048737366 0.06284214
000010 db 18 9e 3d 65 61 f8 3d d0 58 d3 3d 46 47 3c 3c
       0.077195846 0.121279515 0.10319674 0.011491602
000020 4a ac e2 bc bd 1b 07 3e b4 64 66 3c 8f 96 a9 3d
       -0.027670044 0.13194175 0.014062095 0.0828067
000030 f1 1e 62 bd 86 0a 04 3d 17 1d 8c 3d 9f 81 07 3d
       -0.05520529 0.0322366 0.06841486 0.0330826
000040 ec a7 41 3e df 3b cc 3d 0f d9 85 3d 1f a3 da 3c
       0.18911713 0.09972357 0.06535541 0.02668911

bn2.running_mean f4 [20]
000000 31 28 b3 40 1f df f8 40 e6 c9 49 41 fc 8e 65 40
       5.598656 7.7772365 12.611792 3.586852
000010 22 00 08 40 3d 45 2f 3f 05 39 35 41 09 1d 86 40
       2.125008 0.68465024 11.326421 4.1910443
000020 e4 55 e1 3f ca bb 69 3f b3 94 b2 40 57 6a 09 41
       1.7604337 0.9130217 5.5806518 8.588462
000030 bf ad 54 40 01 29 64 40 8e 1b e3 40 74 ff a2 40
       3.3231046 3.5650027 7.0971136 5.0936832
000040 4d 02 6c 40 60 d3 83 3f 17 aa 0f 41 24 44 57 bf
       3.6876404 1.0298882 8.979026 -0.8408835

bn2.running_var f4 [20]
000000 40 30 30 42 be 60 70 42 2f b8 b7 42 2b 95 47 42
       44.04712 60.094475 91.85973 49.89567
000010 98 6c 11 42 d7 dc e2 41 54 f5 c7 42 9d a4 1d 42
       36.35605 28.357832 99.97916 39.410755
000020 8b 5b 9b 41 e7 f6 c0 41 e1 bd 31 42 4d 03 d1 42
       19.419699 24.120558 44.43543 104.50645
000030 25 7b 4f 42 21 37 24 42 6e 48 2a 42 91 fa 05 42
       51.87026 41.053837 42.570732 33.494694
000040 d0 2f 6c 42 9a 38 c5 41 cc 64 bc 42 ec d3 d3 40
       59.04669 24.652637 94.19687 6.6196194

fc1.weight f4 [50, 320]
000000 0b 00 7b be f2 9a 97 be 0d ab 2d be 25 f1 18 3e
       -0.24511735 -0.296104 -0.16959782 0.1493574
000010 f9 92 30 3d 41 cb be bd fc 5e 42 bd 72 d6 2b 3e
       0.043108914 -0.09316111 -0.047453865 0.16781023
000020 53 50 6c 3e 81 e7 bb 3e c0 f2 92 bd bb f6 de bd
       0.23077516 0.3670006 -0.07175207 -0.10886904
000030 e9 2a f3 3e ab e6 1d 3e 3a 08 05 3d d9 36 3f 3d
       0.47493675 0.15420024 0.03247855 0.046683166
000040 47 1d 04 be 2c d6 7e be db 12 84 3c f7 0d a8 3d
       -0.12901793 -0.24886388 0.016122272 0.082057886
000050 a6 6b b5 be b9 9f dd bd 22 eb aa 3d f2 81 80 3c
       -0.35433692 -0.1082148 0.08345629 0.015686963
000060 35 93 61 3d d1 38 11 3d f3 29 5f 3e 0c 08 52 3e
       0.05507203 0.035454575 0.21793346 0.20510882
000070 98 e1 4b be 82 b6 8c be cd a5 f6 bc 84 b7 76 bc
       -0.19910276 -0.27482992 -0.030108357 -0.015058402
000080 bb 6f f4 bd b3 1c 6e be 31 9d 7f be bb b8 d1 3b
       -0.119353734 -0.23253135 -0.24962308 0.0064001954
000090 64 ea 95 be 1e 18 8c 3d 01 dc 1b 3e cf dc 49 3e
       -0.29280388 0.068405375 0.15220644 0.19713138
0000a0 0c 46 85 3e d8 da 5b be 49 a9 70 be ba df 93 bc
       0.26030004 -0.21470201 -0.23502077 -0.018051017
0000b0 d5 fd 04 be aa cb 1b be 74 24 eb 3d 12 bd fa 3d
       -0.12987454 -0.1521441 0.11481562 0.122430936
0000c0 64 dc 13 be 57 f9 76 be f0 c8 66 be 1a c6 f3 3d
       -0.14439541 -0.24118553 -0.22537589 0.11903019
0000d0 bf f5 3a 3e 3c d6 96 3e fc bb ea 3c 85 77 ae 3e
       0.18257807 0.29460323 0.028654091 0.3407556
0000e0 20 ec 3e 3e 53 6f da be 17 74 a4 be 59 5c 24 be
       0.18644762 -0.4266306 -0.3211982 -0.16050853
0000f0 7d b7 57 bc d6 f6 ec be ad d1 cc be 50 6c e6 be
       -0.013166306 -0.4628207 -0.4000372 -0.4500451
000100 b7 6c cb bd 05 47 cd bc 50 9d 36 bd da 5f 60 be
       -0.09932845 -0.025058279 -0.04458362 -0.21911564
000110 c2 0d 6d be d4 76 14 bd 85 68 9d bd 78 60 bd b9
       -0.2314978 -0.036246136 -0.07685951 -0.00036120764
000120 d1 af 90 3d b3 9c ae bd da 8b ac bd 76 18 e6 3d
       0.07064784 -0.08525982 -0.08425112 0.11235134
000130 5a 68 72 3c 01 0e f4 bd fc e3 72 3e f2 82 ad 3d
       0.014795387 -0.119167335 0.23719782 0.084722415
000140 9d 69 7f 3e 20 59 6d 3e 72 90 05 be 8f c1 5a bd
       0.24942632 0.2317853 -0.13043383 -0.053407248
000150 32 b6 af be ad 23 88 be b4 c2 07 3e 60 83 da bc
       -0.34318691 -0.26589718 0.13257867 -0.026673973
000160 11 3f bb be 06 56 15 bf 1c 51 9f be 19 4a a8 be
       -0.36571553 -0.58334386 -0.3111657 -0.32869032
000170 ab b6 01 bf d8 f5 79 be 5a a6 c2 3d a5 8b 03 bf
       -0.50669354 -0.24410188 0.09504385 -0.51384956
000180 05 d2 86 be 8a 4a 96 bc 45 a1 99 3d a0 9b bd 3e
       -0.26332107 -0.01834609 0.07501463 0.37032795
000190 bc 86 63 3e eb 54 70 be f3 a4 0b bf 71 2e 16 be
       0.22219366 -0.23469894 -0.5454857 -0.14666153
0001a0 0c f4 3e be fb 61 ba be ef a8 38 be bb 95 4a be
       -0.18647784 -0.36402878 -0.18033193 -0.1978368
0001b0 11 69 d3 bd d1 35 06 bf bd b1 25 bf 0d 93 30 bf
       -0.10322774 -0.5242587 -0.6472433 -0.6897438
0001c0 dd ec 51 bd 4d ec 80 be 7a 72 0e be 35 9f 0c 3e
       -0.05125128 -0.25180283 -0.13910857 0.13732608
0001d0 5e 60 36 be 26 f6 60 3d 2d e2 e9 3d a0 dd 43 3e
       -0.17810199 0.054922245 0.11420093 0.19127512
0001e0 d8 58 5f 3e dd 4b a4 3e 7a 5e 57 be 60 06 35 3e
       0.21811235 0.3208913 -0.21032134 0.17678213
0001f0 08 cf ea bd 14 1a 6a bd 04 61 64 3c a8 d6 10 3d
       -0.11465269 -0.057153776 0.013939146 0.035360962
000200 40 8e 3a 3e b1 e3 80 3d 55 44 04 be 3b 1d c5 bd
       0.18218327 0.06293429 -0.12916692 -0.09624716
000210 30 f8 62 3e 13 1d 50 3e b6 49 d3 3d f9 02 19 bd
       0.22164989 0.20323591 0.103167936 -0.03735635
000220 60 f2 f3 3d f1 b0 d1 3c ec c6 3e 3c 7e 79 7f 3e
       0.11911464 0.025597068 0.011644106 0.2494869
000230 3f 2d a9 bc 0c 8b 32 bd 71 ee 21 bd 64 8f f7 bd
       -0.020651458 -0.043589637 -0.039534036 -0.120878965
000240 0f 1f ae 3c e6 d5 9d be 31 7a b3 bd a9 02 37 3d
       0.021255044 -0.30827254 -0.087635405 0.04468027
000250 30 de 6f ba d3 39 c8 3e 6d d5 50 3e 92 f6 25 3e
       -0.0009150235 0.39106616 0.20393915 0.1620734
000260 0d 7c c6 bb 96 39 a9 bd d4 a4 94 3d 89 6d b2 3d
       -0.0060572685 -0.08262937 0.07258001 0.087122984
000270 bd 6a 81 3e 5b 36 46 3d 4a 25 5a 3e da 89 e7 bd
       0.25276747 0.04839168 0.21303287 -0.1130559
000280 99 9e ac bd 8d 6d 8d 3e a8 55 e9 3b 0c 2e 74 bd
       -0.084286876 0.27622643 0.0071208067 -0.059614226
000290 cd 96 53 3d d0 b8 75 bd d5 88 8d bd ba 99 60 3d
       0.051657487 -0.059990704 -0.06910864 0.054834105
0002a0 b1 87 86 3e 10 e6 b9 3e 7d 05 aa 3e 9e d7 18 bd
       0.262754 0.36308336 0.33207312 -0.037315004
0002b0 85 d2 73 3e 9a d1 eb 3e 47 e9 b6 3e 25 d3 f2 3d
       0.23810776 0.4605835 0.3572485 0.11856679
0002c0 13 a3 ef bd 6f f5 01 bf 6d a8 8f be 49 92 52 3e
       -0.11701026 -0.50765127 -0.28058186 0.20563616
0002d0 56 7d 9d be 4d 23 e7 bd af 39 83 3e d1 7f 18 3e
       -0.30759686 -0.1128603 0.25629947 0.14892508
0002e0 74 73 ca 3e ad f8 bc 3e 6c b2 83 3d f0 fd 49 3e
       0.3954121 0.36908475 0.06430516 0.19725776
0002f0 ab 82 c5 3e af 4a ae 3e 14 49 0d 3e 12 17 8b 3e
       0.38576254 0.34041354 0.13797408 0.2716604
000300 59 1b 8e be f0 05 8a bd 55 d7 55 be c7 7d 69 bc
       -0.2775524 -0.06739414 -0.20882924 -0.014251179
000310 30 4e 5f be 99 ff 40 3e f9 43 0c 3e 56 36 d0 3d
       -0.2180717 0.18847503 0.13697805 0.10166614
000320 69 93 26 bd 94 51 1d 3e b8 90 fd bd 43 c1 58 bd
       -0.040667925 0.15363151 -0.123811185 -0.052918684
000330 6d 84 ca be 3c a3 03 be d1 ae e7 3d a1 2d 69 3d
       -0.39554158 -0.12855238 0.113126405 0.05692828
000340 9d 13 02 3e 56 a4 c4 bd 6c 4d 4d 3c 54 16 88 3d
       0.12702794 -0.09601657 0.012530666 0.06644884
000350 df 30 29 3e 25 fd b7 3e ad 86 6c 3e ad 40 5e 3d
       0.16522549 0.3593532 0.2309825 0.0542609
000360 98 1b 8b 3e 82 6e f5 3e e7 c1 a7 3e c2 da 9a 3e
       0.2716949 0.47935873 0.32765123 0.30245024
000370 33 82 88 3e 0a bb 84 3e 16 66 21 bd ad 1e a6 3d
       0.26661834 0.2592395 -0.039403997 0.0811132
000380 97 03 ba 3d 20 c0 cb bd e3 d6 33 be be 2c 86 3e
       0.09082716 -0.09948754 -0.17562442 0.2620601
000390 90 a7 7f 3d 4f d9 ab be 35 bb 9b be b1 03 24 bc
       0.06241566 -0.3356423 -0.30416265 -0.010010646
0003a0 24 b9 c0 bd 88 01 fa bc 3d bb c2 bd 52 7e 8c bd
       -0.09410313 -0.030518308 -0.09508369 -0.06860031
0003b0 12 10 03 3e 0c 7a 9a bd 6c 72 1f bf ba e2 06 be
       0.12799099 -0.0754281 -0.6228397 -0.13172427
0003c0 76 cc ca bc 16 84 4d 3d ea 69 ef bd ee f3 93 be
       -0.024755698 0.050174795 -0.116901234 -0.2889704
0003d0 75 4e c7 be 8a d5 83 be 66 aa cb bd ca ea 1d be
       -0.38927045 -0.25748855 -0.0994461 -0.15421596
0003e0 52 76 e6 3d ce 64 59 3e 43 dc 30 be 8c f9 96 3d
       0.112530366 0.2122986 -0.17271523 0.07371816
0003f0 29 2b 84 3d 99 cd 9b bd 6a 5d a5 be 6e 7d 2c bd
       0.06453545 -0.07607574 -0.32297832 -0.042111807

fc1.bias f4 [50]
000000 28 5f 25 be 75 b6 dd 3a 4a 48 4f bd 77 93 11 be
       -0.1614958 0.0016915338 -0.05060605 -0.1421641
000010 c3 83 e0 bb 22 46 2a 3c 43 83 28 bd c7 a4 83 be
       -0.0068516447 0.0103926975 -0.041140806 -0.25711653
000020 46 11 c9 bb eb ef e6 bc 23 25 12 be 2e 11 a2 bd
       -0.0061360924 -0.028190574 -0.14271979 -0.07913433
000030 cc 9e 4f bd 74 69 01 be bd ff 15 be 00 ee 8c be
       -0.05068855 -0.12637883 -0.14648338 -0.2752533
000040 c6 d1 5b bc 83 dd 14 be cd d6 f3 bd f0 e1 94 be
       -0.013416713 -0.14537625 -0.119062044 -0.29078627
000050 ff 92 53 be d5 d1 4c be 2d ee 02 be b8 69 5b bc
       -0.20661543 -0.2000192 -0.1278617 -0.0133919045
000060 5c 51 d8 3d 61 b2 cd bd 71 0e 83 be 5e 42 e7 3d
       0.10562393 -0.10043789 -0.25596955 0.112919554
000070 0f 66 85 be 46 8a 2f be 3e 41 27 be 99 51 96 be
       -0.26054427 -0.17142591 -0.16333482 -0.2935913
000080 f3 ac 65 be 79 cd 98 be fc 56 73 bd 31 2b 84 bd
       -0.22429256 -0.29844263 -0.059409127 -0.064535506
000090 3b dd 75 be f0 64 46 be 64 c5 2f be a3 74 39 be
       -0.24010174 -0.19374442 -0.17165142 -0.181109
0000a0 b2 20 19 3d 5f c5 12 be 66 00 1f be 6d b0 87 be
       0.037384696 -0.14333104 -0.15527496 -0.2650179
0000b0 a4 67 36 be 7a a1 92 bd 96 36 57 be fc 2e 51 be
       -0.17812973 -0.071597055 -0.21016917 -0.2042808
0000c0 7c 5d e0 bd ac 2e cd bd
       -0.10955331 -0.100186676

fc2.weight f4 [10, 50]
000000 bd de a0 3e b1 92 a9 bd 1a 5d 72 3d 0a 06 66 bc
       0.31419936 -0.08279932 0.05917082 -0.014039526
000010 23 9d 2e be ad df a2 3d 37 c3 85 be 84 0d 1c ba
       -0.1705213 0.07952819 -0.261255 -0.0005952942
000020 dd 37 90 be 7e 2c 30 be 38 e9 13 be 36 0e 88 bd
       -0.2816762 -0.17204472 -0.14444435 -0.066433355
000030 b4 4d 1c 3c 39 97 c8 3d e5 05 ac 3e 19 47 8f 3d
       0.00954001 0.097944684 0.33598247 0.06995983
000040 22 a1 ba 3c d4 d4 06 3e b6 ff 05 bd 2a 7c c9 3c
       0.022781912 0.13167125 -0.032714568 0.024595339
000050 95 13 80 be 0e 52 2e bd 1b 99 67 bb 55 f2 62 be
       -0.2501494 -0.042558722 -0.003533906 -0.22162755
000060 86 ba 3d 3d d1 f8 d1 be 13 d6 18 be 0c f7 2a be
       0.04632046 -0.41010144 -0.14925413 -0.16695803
000070 75 f4 71 bc 2c d4 b2 3c 48 b5 e9 bd a2 e9 91 3e
       -0.014767756 0.021829687 -0.1141153 0.2849856
000080 4a c1 68 3e 01 4a a4 3d ac 07 c3 be e2 f8 34 bc
       0.22729984 0.080219276 -0.3809179 -0.011045666
000090 8e 54 43 be a3 51 54 bd f6 30 04 bd 1b a5 58 be
       -0.19075224 -0.051835667 -0.032273255 -0.21156733
0000a0 0f df 2c be 63 58 ac be 9a 62 44 3e b3 2f e0 bd
       -0.16881965 -0.33661184 0.19178239 -0.10946598
0000b0 da 05 1f 3e 2a f8 93 3e 14 3f 04 be 1f ab 33 3d
       0.15529576 0.28900272 -0.12914687 0.043864366
0000c0 c7 ed 3e bc 1e aa ba 3d de b2 a4 3e 07 d5 ac 3d
       -0.01165337 0.091144785 0.32167715 0.08439069
0000d0 d5 02 89 3b 7f ad 82 3e 1b ab 77 3e 4c f3 38 3e
       0.004181246 0.25522992 0.24186365 0.1806156
0000e0 1d 1f 1a be 21 49 6e bc fb 2f b1 3d 50 64 7a bc
       -0.15050931 -0.0145438025 0.0865173 -0.015282705
0000f0 8b 83 bf 3d f0 76 2b 3e 91 96 94 bd 58 c9 04 be
       0.09351262 0.1674459 -0.07255281 -0.12967432
000100 f0 75 3a be 39 ae bf be 28 bf 16 3e 9c 65 24 bd
       -0.18209052 -0.3743761 0.14721358 -0.040135965
000110 22 08 eb bc b4 6e 08 be 41 2c 4c be 20 ac 27 3e
       -0.028690401 -0.1332348 -0.19938757 0.16374254
000120 2f 96 2d 3e b9 21 b6 3d bf 3a 62 3e a1 a5 dc be
       0.16951822 0.08893151 0.22092722 -0.43095115
000130 aa 80 cc be 2a d7 86 3e 49 2a 03 bd 7c 52 6b 3c
       -0.39941913 0.26336032 -0.03202275 0.0143629275
000140 dd de 0d 3e a7 27 43 3e 47 c9 d4 bd c1 9a 96 be
       0.13854547 0.19058095 -0.10389953 -0.29414943
000150 1a 7a 6f 3e 14 8e a3 bd 16 9a 70 be 69 8e 64 3d
       0.23386422 -0.079860836 -0.23496279 0.055799875
000160 9e 43 fd 3c 5d bf 7e 3e 56 02 09 bc a0 97 19 3e
       0.030916031 0.24877687 -0.008362373 0.14999247
000170 7d 9e cf bd 74 ec 2f be 9c 89 4d 3e 9f 68 b1 3d
       -0.10137651 -0.17180043 0.20072025 0.08662533
000180 5f 2c fa bd 02 60 e9 3d a6 24 14 bd 5b c3 16 3e
       -0.12215494 0.11395265 -0.036167763 0.1472296
000190 91 50 c5 be 69 03 00 3c 33 24 25 be 58 a6 32 be
       -0.3853803 0.007813313 -0.1612709 -0.17446268
0001a0 a4 3b 85 bd c7 04 3e 3e 31 56 20 3e 54 c9 89 bd
       -0.06505516 0.1855651 0.1565788 -0.067278534
0001b0 2f 8c 87 3e be 9b 81 3d ff c6 86 bd f8 ba b4 3e
       0.2647414 0.063285336 -0.06580924 0.35298896
0001c0 c5 c0 6c 3e f3 1e b2 3e 6a b9 d4 3b 7e e0 22 3e
       0.2312041 0.34789237 0.0064918296 0.1590595
0001d0 89 f3 87 be f2 8e ba 3d c2 05 94 bd 89 0b 28 3c
       -0.2655299 0.09109296 -0.07227661 0.010256656
0001e0 42 fd 12 be 4a e9 52 3c 13 bd f7 bd 42 fe b2 bd
       -0.14354423 0.012873003 -0.1209661 -0.08739902
0001f0 6f b0 2e be 0c fd 00 be 7c 6c 0f be 9a a3 df 3d
       -0.17059492 -0.1259653 -0.14006227 0.109198764
000200 52 23 71 be 99 0a 02 3e 49 5e 1b be bc ad 91 3d
       -0.2354863 0.12699355 -0.15172686 0.07113215
000210 f4 9d 49 be 79 b4 52 bd 8d 37 7d 3d 19 18 37 3e
       -0.1968916 -0.051441643 0.061820555 0.17880286
000220 33 6d fb 3d 93 13 3e be 2c 9e 26 3e da da 92 3c
       0.122766875 -0.18562154 0.16271275 0.017926622
000230 8d 21 21 3e af 9c 18 3e 8c f9 10 be 20 21 5f bc
       0.15735455 0.1490352 -0.14157695 -0.013618737
000240 84 ba 04 3e fb e0 ce 3d 1e 88 2a 3e fe f1 c3 3d
       0.12961775 0.10101505 0.16653487 0.09567641
000250 e3 65 df bd c9 a9 3f 3e 96 1c 0e be 8f 82 4e 3d
       -0.10908105 0.18717112 -0.13878092 0.05041748
000260 cb 4e 96 3d 79 21 59 be 82 c4 0b be 65 5e 90 bd
       0.07339247 -0.21204175 -0.1364918 -0.07049254
000270 04 5e 48 3d 4b 1c 38 3e f3 be d4 bb c7 60 05 be
       0.048917785 0.17979543 -0.0064924895 -0.13025199
000280 a0 02 fc bd b7 08 7a 3e ff f0 bc bd 58 b8 84 be
       -0.12305188 0.24417387 -0.09225654 -0.25921893
000290 c8 11 d0 bd 84 48 16 be 84 e5 66 be 75 65 95 bd
       -0.101596415 -0.146761 -0.22548491 -0.07294742
0002a0 03 53 1b be 24 70 1e 3e 82 e0 35 3e 7e 8b 55 3e
       -0.15168385 0.15472466 0.17761424 0.20853993
0002b0 39 ab ab bc 88 f3 c6 3d 1a 13 3b be 39 87 84 be
       -0.020955669 0.09714419 -0.18269005 -0.25884417
0002c0 07 57 99 3d 61 2b 8d be 9c 55 73 3e 89 92 a7 be
       0.07487302 -0.27572158 0.23763126 -0.32728985
0002d0 bb a0 c0 be 3c 3b f4 bc c8 2d a5 bd d8 c7 6b 3e
       -0.37622628 -0.029813401 -0.08065373 0.23025453
0002e0 12 70 29 3e bf b6 2b 3d 1c 5b a1 3d f1 bb 81 3d
       0.16546658 0.041922327 0.07878706 0.06334675
0002f0 f6 14 5a be 28 55 ce 3d 83 98 c3 bd 48 58 73 3e
       -0.21297058 0.10074836 -0.09550574 0.23764145
000300 bf 2a 6a be d7 05 e0 3d 01 ea 8a be 9f 98 41 be
       -0.22867869 0.10938614 -0.27131656 -0.18905877
000310 2c 73 6c bd 87 b4 17 be b6 61 29 bd 04 29 6d 3e
       -0.057727024 -0.1481496 -0.04135295 0.23160177
000320 ad 12 c4 bd df 82 b3 3c c7 d3 c7 3d 80 c0 60 3e
       -0.095738746 0.02191299 0.0975719 0.21948433
000330 4c 14 98 3d 14 07 80 3e 57 f7 b8 3d 14 e4 44 bd
       0.07425746 0.250054 0.09031551 -0.048069075
000340 dc fa 6a be 2c 45 2f 3d 8a 70 55 3d 70 14 85 3d
       -0.22947258 0.042790577 0.05210928 0.06498039
000350 ff b9 81 3e 72 27 a8 3d b4 2a 5c 3e c2 3e 78 3e
       0.25337216 0.082106486 0.21500665 0.2424269
000360 ee 70 ad 3c b6 96 65 be 19 47 90 3d c8 45 ab be
       0.021172013 -0.22420773 0.07044811 -0.33451676
000370 82 15 e5 bd 60 6f f2 bd 24 f2 6e 3e e8 e7 5f 3e
       -0.11185743 -0.11837649 0.23334557 0.21865809
000380 ac 72 53 3e b3 08 6e 3e a6 d7 4d 3d 9c 5f 92 3d
       0.20649213 0.23245506 0.050254487 0.07147142
000390 c0 91 51 3c a3 77 d4 3d 84 56 bc 3c 5d 1d 29 be
       0.012791097 0.103743814 0.022990473 -0.16515107
0003a0 b0 b4 b6 bd 0f 3f 01 be a4 9f f8 bd 8e a6 4b be
       -0.08921182 -0.12621711 -0.12139824 -0.19887754
0003b0 51 61 3b 3d ab 6b 69 3e 9d c1 f9 3d c5 71 ef 3d
       0.045747105 0.22794978 0.12195132 0.11691622
0003c0 d4 eb c9 3d 11 de d3 bc ee 17 80 be ea f9 2a ba
       0.09859434 -0.025862725 -0.25018257 -0.00065222254
0003d0 5f c3 34 be 83 36 be 3c 7d f6 bb be 47 da 04 be
       -0.17652653 0.023219353 -0.36711493 -0.12973891
0003e0 5c f4 60 3e a7 16 60 be 86 69 84 3d 98 d5 9a bd
       0.21968216 -0.21883641 0.064654395 -0.07560271
0003f0 0a 67 89 bd 4f ca 64 be 62 cf 4b 3e fe e7 8d 3c
       -0.06709106 -0.223428 0.19903329 0.017322537

fc2.bias f4 [10]
000000 86 44 c1 bd 1c 11 ed 3d de e7 7b bc 1d b0 1a be
       -0.09436898 0.11575529 -0.015375106 -0.15106244
000010 47 95 2f 3e a7 37 6f 3b 82 a6 84 be 8a bb 22 bc
       0.17146789 0.0036501677 -0.25908285 -0.009932408
000020 33 7e 5d 3c 2d 53 17 be
       0.013518858 -0.14777823
