results/Net.ckpt (torch, 93029 bytes, 16 tensors)

conv1.weight f4 [10, 1, 5, 5]
0	0x3e1029bb	0.14078419
1	0xbe02efae	-0.12786743
2	0xbe3d7046	-0.1849986
3	0xbda59272	-0.08084573
4	0xbe7a30ad	-0.24432631
5	0x3e759e65	0.23986204
6	0x3d68c896	0.05683192
7	0xbd797e62	-0.060911544
8	0xbe05281c	-0.13003582
9	0xbe88673c	-0.26641262
10	0x3e00eacb	0.12589566
11	0x3e950ed5	0.29112878
12	0x3e7a5540	0.24446583
13	0x3d7c3fcc	0.06158428
14	0xbaf25af7	-0.0018490244
15	0xbdaa41aa	-0.08313306
16	0x3e1c9308	0.15290463
17	0x3e8d2a51	0.27571347
18	0x3ef634b1	0.48087075
19	0x3e930f72	0.2872272
20	0xbda2ab28	-0.07942802
21	0xbeae7325	-0.34072223
22	0xbe8a5964	-0.27021325
23	0xbe3fb887	-0.18722735
24	0x3d577e5b	0.052610736
25	0xbe3e3c80	-0.18577766
26	0x3dcf12e7	0.10111027
27	0x3d348f59	0.04408202
28	0xbf173f20	-0.59080696
29	0xbdea0dac	-0.11428389
30	0xbc624524	-0.01381043
31	0x3eec4f31	0.46154168
32	0x3e68a09d	0.22717519
33	0xbf09a556	-0.5376791
34	0xbedb7d20	-0.428689
35	0xbe2d8ab4	-0.16947442
36	0x3eef7360	0.46767712
37	0x3e1668b6	0.14688382
38	0xbdf3cae6	-0.11903934
39	0xbe212de2	-0.15740159
40	0xbd6db0ab	-0.05802981
41	0xbde05413	-0.10953536
42	0x3e96123a	0.2931078
43	0x3cbff6f9	0.023433195
44	0xbdc4cd11	-0.09609426
45	0xbda4084e	-0.080093965
46	0xbdea246b	-0.114327274
47	0x3e2cf0d3	0.16888742
48	0x3d877899	0.06614799
49	0x3d861a7a	0.06548019
50	0xbd1f49b2	-0.03888864
51	0xbe8f771a	-0.28020555
52	0xbe396cbf	-0.1810789
53	0x3dad0298	0.0844776
54	0x3eccbb1b	0.399865
55	0x3cc26d43	0.02373374
56	0xbea54b7b	-0.3228415
57	0xbceac1be	-0.028656837
58	0x3f167244	0.58768106
59	0x3e20d6a4	0.15706879
60	0xbe7a7977	-0.24460398
61	0x3dbae86a	0.09126361
62	0x3f024e92	0.5090114
63	0x3ec889bd	0.39167586
64	0xbec61e25	-0.38694873
65	0x3c075b5f	0.008261531
66	0x3e1a3d6d	0.15062495
67	0x3d8ffe33	0.070309065
68	0xbef05ba3	-0.46944913
69	0xbebd9616	-0.3702857
70	0xbd01ac34	-0.031658366
71	0xbdd39d3f	-0.10332727
72	0xbe7df694	-0.24801093
73	0xbe626327	-0.22108136
74	0x3e1ebf02	0.15502551
75	0x3d9a1266	0.075230405
76	0x3eaa6d47	0.33286497
77	0x3e9fcfd9	0.31213263
78	0x3e0820ed	0.1329381
79	0x3e5b53d6	0.214187
80	0xbed5afc9	-0.41735676
81	0xbded86a4	-0.11597946
82	0x3d49df6c	0.049285337
83	0x3d539b9b	0.05166207
84	0x3d43d404	0.047809616
85	0xbefb654d	-0.49100724
86	0xbf065def	-0.5248708
87	0xbe8ed6db	-0.27898297
88	0xbe7df903	-0.24802022
89	0xbdae7302	-0.0851803
90	0x3d5e788a	0.054314174
91	0xbead1a4e	-0.3380913
92	0xbe93f1a5	-0.28895298
93	0xbe068d7a	-0.13139907
94	0xbe2694f1	-0.16267754
95	0x3e637244	0.22211558
96	0x3ea3d438	0.31997848
97	0x3dd139bb	0.10216089
98	0xbc8a5fbd	-0.016891355
99	0xbdd4ad11	-0.10384572
100	0x3e0db4f6	0.13838562
101	0x3cb5f678	0.022212252
102	0x3dc6dc25	0.09709958
103	0x3ddf8502	0.10914041
104	0xbd4be59d	-0.049779523
105	0xbeab5dc1	-0.33469966
106	0x3ebbe259	0.36696127
107	0x3eca81bd	0.39552107
108	0x3e766b87	0.24064456
109	0x3def550f	0.116861455
110	0xbda0b088	-0.07846171
111	0x3f06e749	0.52696663
112	0x3ec55dfa	0.3854826
113	0xbebcbb03	-0.3686143
114	0xbda714f9	-0.08158297
115	0x3e023cd7	0.12718521
116	0x3e50dbb7	0.20396315
117	0x3cf7a3b7	0.030229433
118	0xbeca515c	-0.39515197
119	0xbe8a2309	-0.26979855
120	0xbde9fdf4	-0.11425391
121	0xbe17029c	-0.14747089
122	0xbd434896	-0.047676645
123	0xbe712a78	-0.23551357
124	0x3def8925	0.1169608
125	0xbe4326f0	-0.19057822
126	0xbee048fa	-0.43805677
127	0xbe09ebb8	-0.13468826
128	0x3e475e48	0.19469559
129	0x3e7b9011	0.24566676
130	0xbe483304	-0.19550711
131	0x3d9934b2	0.07480754
132	0x3eb32508	0.3498919
133	0x3e7feee2	0.2499347
134	0xbd9b4b08	-0.075826705
135	0x3eadd48d	0.33951226
136	0x3e9dcc8e	0.30820125
137	0xbcf924a9	-0.030412989
138	0xbe81feea	-0.25389796
139	0xbecfdbd3	-0.405974
140	0xbc7af8ec	-0.015318137
141	0xbd9831bb	-0.0743136
142	0xbebb98b0	-0.3663993
143	0x3dfe0517	0.124033146
144	0x3e876f1a	0.2645195
145	0xbdc1742d	-0.09445987
146	0x3b904842	0.004403145
147	0x3bf95505	0.007609012
148	0x3e7ff932	0.24997404
149	0x3dc69294	0.09695926
150	0xbe395209	-0.180977
151	0x3e283175	0.16425116
152	0xbdab681d	-0.083694674
153	0xbe1b1867	-0.15146028
154	0xbe951329	-0.2911618
155	0xbe735c44	-0.23765665
156	0xbeeff35c	-0.46865356
157	0xbeb9a275	-0.36256757
158	0xbe342e17	-0.17595707
159	0xbeb66901	-0.35626987
160	0xbd725e92	-0.05917222
161	0xbd80ba45	-0.06285528
162	0xbcfe5d5f	-0.031050382
163	0x3c82b754	0.015956558
164	0xbe89c27c	-0.26906192
165	0x3e88338c	0.26601827
166	0x3d1de2ad	0.038546253
167	0x3d8fa406	0.07013707
168	0xbcd744fb	-0.02627801
169	0xbd64d8b0	-0.05587071
170	0x3e435442	0.1907511
171	0x3e9c9d68	0.3058884
172	0x3e36853d	0.17824264
173	0x3ebe3c87	0.37155554
174	0x3ee68cb9	0.45029238
175	0x3e51c90c	0.2048685
176	0x3e091a23	0.13388877
177	0x3db791cf	0.08963358
178	0xbe65f6f1	-0.22457482
179	0xbe534bc4	-0.20634371
180	0x3e1e26dd	0.15444513
181	0x3e68d419	0.22737159
182	0xbe52a4c8	-0.20570672
183	0xbf042cc6	-0.5163082
184	0xbf022d76	-0.5085062
185	0xbdcd5704	-0.100263625
186	0xbf0b49bf	-0.544094
187	0xbf5e872a	-0.86924994
188	0xbeca6d70	-0.3953662
189	0x3cae87bb	0.021304956
190	0xbed4bb54	-0.4154917
191	0xbf1992db	-0.5998971
192	0xbe945d09	-0.2897723
193	0x3d98c333	0.07459106
194	0x3f04402d	0.51660424
195	0xbe6d4675	-0.23171408
196	0xbd9bc3e0	-0.076057196
197	0x3e775a84	0.24155623
198	0x3e98c0ce	0.29834598
199	0x3e0903aa	0.13380304
200	0xbde0e8a1	-0.109818704
201	0xbe93826c	-0.28810441
202	0x3dd8a6c2	0.105786815
203	0xbbd0b6f0	-0.006369464
204	0x3e838b99	0.25692442
205	0xbd31406d	-0.04327433
206	0xbe365786	-0.17806825
207	0xbdf70b56	-0.12062709
208	0x3d1a0fd7	0.037612762
209	0x3e8b129e	0.2716264
210	0x3e0d3d61	0.13792945
211	0x3c911e0d	0.017714525
212	0xbed03aad	-0.40669766
213	0x3b574765	0.003284895
214	0x3e955a98	0.2917068
215	0x3ec01515	0.37516084
216	0x3e2eacdd	0.1705813
217	0xbec4a235	-0.38405004
218	0xbe723021	-0.23651172
219	0x3ead7744	0.33880055
220	0xbdc012fb	-0.0937862
221	0x3e856a35	0.26057592
222	0xbe90ccec	-0.28281343
223	0xbe47795f	-0.19479893
224	0x3e954c30	0.2915969
225	0xbd681882	-0.056663997
226	0x3de1cd58	0.11025494
227	0x3e822b9e	0.25423902
228	0x3e47002b	0.19433658
229	0x3ea3890c	0.31940496
230	0x3d1b082d	0.037849594
231	0x3d24a14d	0.04019289
232	0x3e9f643e	0.31131166
233	0x3db68a1d	0.08913062
234	0x3e1e6196	0.15466914
235	0xbd663fa6	-0.056213044
236	0xbdabfb19	-0.083975025
237	0x3ddef98f	0.10887443
238	0x3e80f951	0.25190213
239	0x3db94a8a	0.0904742
240	0xbed7eafc	-0.42171466
241	0xbe9a3bb4	-0.30123675
242	0xbeb75ea4	-0.35814393
243	0xbea370c1	-0.31921962
244	0xbe8b121a	-0.27162248
245	0xbe1382f4	-0.14405423
246	0xbf0a431a	-0.5400864
247	0xbf2899f5	-0.6585992
248	0xbedbb66a	-0.42912608
249	0xbdf4c8c0	-0.119523525

conv1.bias f4 [10]
0	0x3f724b8d	0.9464653
1	0xbdb79c65	-0.08965377
2	0xbf2e477c	-0.68077826
3	0xbed94252	-0.4243341
4	0xbf04f36a	-0.5193392
5	0xbe5456e5	-0.20736273
6	0xbf3acab6	-0.7296556
7	0xbf9738f8	-1.181426
8	0x3dd88d3f	0.105738156
9	0xbee3df0b	-0.44506106

bn1.weight f4 [10]
0	0x3f8d6a9a	1.1048157
1	0x3f86ecd4	1.0541024
2	0x3f9738b2	1.1814177
3	0x3f819018	1.0122099
4	0x3f546581	0.8296738
5	0x3f65d14c	0.89772487
6	0x3f82fd29	1.0233508
7	0x3fc523b3	1.540152
8	0x3f772cc1	0.96552664
9	0x3f9ea8f6	1.2395313

bn1.bias f4 [10]
0	0x3f2b4595	0.6690305
1	0xbf1659e5	-0.5873092
2	0x3ebde3fe	0.37088007
3	0xbec566a7	-0.3855488
4	0x3ed6dec3	0.4196683
5	0x3ee795cb	0.4523147
6	0xbe542bad	-0.20719786
7	0xbe69c4d9	-0.22828998
8	0x3d8b7b69	0.06810648
9	0xbdd073d9	-0.10178346

bn1.running_mean f4 [10]
0	0x3fcb6320	1.5889626
1	0x3eee434a	0.46535712
2	0xbdfab42c	-0.12241396
3	0x3d83872f	0.064222686
4	0x3e5ccfe2	0.21563676
5	0x3e86499a	0.2622803
6	0xbd89c5c9	-0.06727178
7	0x3dcabfc5	0.098998584
8	0x3f254198	0.64553213
9	0x3eeb9240	0.46010017

bn1.running_var f4 [10]
0	0x400aba72	2.1676297
1	0x3fcd9cbf	1.606346
2	0x40036aab	2.0533855
3	0x3f9634ea	1.1734898
4	0x40824dc7	4.0719943
5	0x3fa761f9	1.3076774
6	0x402def40	2.7177277
7	0x3fdcba2e	1.7244318
8	0x3fa3b230	1.2788754
9	0x4031002b	2.7656353

conv2.weight f4 [20, 10, 5, 5]
0	0xbdccd4d9	-0.10001535
1	0xbd317195	-0.04332121
2	0xbe0fb9f0	-0.14035773
3	0xbd5d8778	-0.05408427
4	0xbe49f6d9	-0.19723071
5	0xbe012b75	-0.12614234
6	0xbe0ff19c	-0.1405701
7	0xbd885a7b	-0.06657883
8	0x3e35fd01	0.17772295
9	0xbe718328	-0.23585188
10	0x3db22d31	0.08700026
11	0xbe12c2d1	-0.14332129
12	0x3da0f83e	0.078598484
13	0x3df01aef	0.11723887
14	0x3d4eac53	0.05045731
15	0xbe6d562e	-0.23177406
16	0xbdd4038c	-0.10352239
17	0x3e09a48d	0.13441677
18	0xbd93a7a5	-0.0720971
19	0xbd72bb8c	-0.05926089
20	0xbdc59517	-0.09647577
21	0xbd96db9e	-0.073661074
22	0x3e1090d1	0.14117743
23	0x3dbd3d4a	0.092402056
24	0x3e2e161d	0.17000623
25	0xbe6e75e8	-0.23287165
26	0xbc5c2b54	-0.013438065
27	0x3e64e82e	0.22354195
28	0x3e0a6b97	0.13517605
29	0xbe5c95af	-0.21541475
30	0xbc87b6df	-0.016566692
31	0xbe5ef54d	-0.21773262
32	0x3ebfc07e	0.37451547
33	0x3e4048eb	0.18777816
34	0xbd1fef4f	-0.03904658
35	0x3c4c4d84	0.012469653
36	0xbd1fdb7c	-0.039027676
37	0x3ebdc059	0.37060812
38	0x3d265a0d	0.040613223
39	0x3ed938d4	0.4242617
40	0x3bfe81f2	0.0077669555
41	0x3db8cc4b	0.09023341
42	0x3e58a024	0.21154839
43	0xbe08cb30	-0.1335876
44	0x3e5284bf	0.20558451
45	0x3e0cd711	0.13753916
46	0x3e3eda6a	0.18638006
47	0x3e52fb09	0.20603575
48	0x3d174eff	0.03694057
49	0x3d9cfacc	0.07665023
50	0x3db89833	0.09013405
51	0xbe16444f	-0.14674495
52	0xbc5f9007	-0.013645179
53	0x3c92071f	0.017825661
54	0x3ea00046	0.3125021
55	0xbe8de307	-0.2771227
56	0x3e2f9901	0.1714821
57	0x3dce1041	0.10061694
58	0xbe07abb6	-0.13249096
59	0x3f1ac420	0.60455513
60	0x3ca6e1af	0.020371286
61	0x3e1b7aaa	0.15183511
62	0xbdaf4745	-0.085585155
63	0x3e1d2195	0.15344842
64	0x3ebc7709	0.36809567
65	0xbbcff7ca	-0.0063466774
66	0x3d50a174	0.050935224
67	0x3d734862	0.0593952
68	0x3e62bd94	0.22142631
69	0x3d93ef2f	0.07223355
70	0x3e56bb4a	0.20969883
71	0x3ca6050e	0.020266082
72	0xbdfabede	-0.12243436
73	0xbd4028d7	-0.046913948
74	0xbc6e4cb6	-0.0145446565
75	0x3b7f4544	0.0038951198
76	0x3b1e15b4	0.0024121823
77	0xbe2bcebe	-0.16778085
78	0xbe32e3bc	-0.17469686
79	0x3ba0da7b	0.0049088574
80	0x3d995106	0.07486157
81	0x3d93973b	0.07206579
82	0xbe4c6210	-0.19959283
83	0xbdbecaf4	-0.09316054
84	0x3d561481	0.052265648
85	0xbe4a041c	-0.1972813
86	0xbd8ddbc4	-0.069266826
87	0xbe6b6a72	-0.22989824
88	0xbe2babad	-0.16764708
89	0x3d1d5e05	0.038419742
90	0x3d900eeb	0.070340954
91	0xbad2d8f6	-0.0016086388
92	0xbe978ae8	-0.29598165
93	0xbd5cfbef	-0.0539512
94	0x3e23d1da	0.15998021
95	0x3b717300	0.0036842227
96	0xba2c53ee	-0.0006573786
97	0x3caed018	0.021339461
98	0xbd7f1dc3	-0.062284242
99	0x3cbd2679	0.023089634
100	0xbd8152a0	-0.063145876
101	0xbd8c8ac4	-0.06862405
102	0x3e0cd3b9	0.13752641
103	0xbd80a5b0	-0.062816024
104	0xbdc0707f	-0.09396457
105	0xbe0f5acc	-0.1399948
106	0xbcaa330e	-0.020776298
107	0x3e2b2acf	0.16715549
108	0xbd80aa99	-0.06282539
109	0x3e5e810c	0.21728915
110	0xbe26571a	-0.16244164
111	0x3db8c66b	0.0902222
112	0x3de3db55	0.11125819
113	0xbe42de6d	-0.19030161
114	0x3e938de5	0.28819194
115	0x3d8842d0	0.066533685
116	0x3dda10dd	0.10647748
117	0x3e24c845	0.16092022
118	0x3d505f0b	0.05087189
119	0x3d5ae36a	0.053439535
120	0x3c0b7d55	0.008513768
121	0x3cfc5ab7	0.030804975
122	0x3d2fe4dd	0.04294287
123	0xbe0ab06d	-0.13543864
124	0xbd76ca7f	-0.06025171
125	0x3dc1ee08	0.09469229
126	0x3e00a3db	0.12562506
127	0xbe7a5005	-0.24444588
128	0xbdfc47dc	-0.123183936
129	0xbdb66bda	-0.0890729
130	0xbd75172b	-0.059836548
131	0x3dacd8f3	0.08439817
132	0xbdc287b4	-0.094985396
133	0xbe6b6b65	-0.22990187
134	0x3ddda06d	0.108216144
135	0x3de32909	0.11091811
136	0x3ecd7094	0.40124953
137	0xbe036c4e	-0.12834284
138	0xbd988acf	-0.07448351
139	0x3e7d7652	0.24752167
140	0x3d0c1903	0.03420354
141	0x3df59d25	0.119928636
142	0xbe0f9886	-0.14023027
143	0x3d29b585	0.041432876
144	0x3ddd1183	0.10794356
145	0x3d343a4f	0.04400092
146	0xbca2dbd2	-0.01988021
147	0xbe5f0891	-0.21780612
148	0x3c8488c1	0.01617849
149	0x3d8a88f5	0.06764404
150	0xbd72eed3	-0.05930979
151	0x3e1190b9	0.14215364
152	0xbbdddebe	-0.0067709377
153	0xbdf92fbf	-0.1216731
154	0xbde1c04c	-0.11023006
155	0x3d734ad6	0.05939754
156	0xbc8ad8e7	-0.01694913
157	0x3dc5ae55	0.09652392
158	0x3d0784e0	0.033085704
159	0xbb3c4418	-0.002872711
160	0xbd4a54fd	-0.049397457
161	0x3d9c2f03	0.07626154
162	0x3d33d2f6	0.04390236
163	0xbd8dadd0	-0.06917918
164	0x3e87dca2	0.26535517
165	0xbdc0f46f	-0.09421622
166	0x3d387cf2	0.045041032
167	0xbd9fb90b	-0.07798966
168	0xbd88a9b6	-0.06672995
169	0x3e917069	0.28406075
170	0xbe006fa0	-0.12542582
171	0x3e04c6ec	0.12966508
172	0xbd97415e	-0.07385515
173	0xbbb67ab8	-0.0055688284
174	0x3e96911e	0.2940759
175	0x3dddda6e	0.10832678
176	0x3e226a04	0.15860754
177	0xbe3cb773	-0.18429355
178	0x3df8fefe	0.12158011
179	0x3ee2034f	0.4414315
180	0x3e4966e8	0.19668162
181	0xbd826237	-0.06366389
182	0xbe3a5dc7	-0.18199836
183	0x3eeea072	0.46606785
184	0x3d5d6539	0.05405161
185	0xbd992f63	-0.074797414
186	0xbdebed55	-0.11519877
187	0x3e811076	0.2520787
188	0x3df59fa2	0.11993338
189	0x3d25f32c	0.04051511
190	0x3d0d8024	0.034546033
191	0xbd3d08df	-0.04615104
192	0x3e07a2dd	0.13245721
193	0x3dfb882d	0.12281833
194	0x3e87b40b	0.2650455
195	0xbd0be2df	-0.034151908
196	0xbe7698c1	-0.24081708
197	0x3cda67d8	0.026660845
198	0x3a20dce2	0.000613643
199	0x3e06f678	0.13179958
200	0x3e94b5f7	0.29045078
201	0xbdbf660d	-0.093456365
202	0xbe277acb	-0.16355436
203	0x3ed3a4a3	0.41336545
204	0x3d355e77	0.04427954
205	0x3e8d0196	0.27540272
206	0xbd10accd	-0.035321046
207	0xbec40ce9	-0.382911
208	0x3e8326fa	0.25615674
209	0xbe1bf2f7	-0.15229402
210	0x3e11d419	0.14241065
211	0x3e1b44b5	0.15162928
212	0xbe5a9758	-0.21346796
213	0x3e9321d8	0.28736758
214	0xbe41f628	-0.18941557
215	0x3e089af4	0.1334036
216	0xbc05a054	-0.008155901
217	0xbe20ff70	-0.15722442
218	0xbd90d3a6	-0.07071619
219	0xbe802f44	-0.2503606
220	0x3e273f60	0.1633277
221	0x3d8b6066	0.06805496
222	0xbd65ee00	-0.056135178
223	0xbd066c13	-0.03281791
224	0xbc52078a	-0.01281918
225	0x3e08f9e5	0.13376577
226	0xbdd67518	-0.104715526
227	0xbe475d29	-0.19469132
228	0xbe2feba6	-0.17179736
229	0x3d902a13	0.07039275
230	0xbe380d45	-0.17973812
231	0xbe408487	-0.18800555
232	0xbe1f6724	-0.15566689
233	0xbebb6cd7	-0.36606476
234	0x3d56cfcd	0.052444268
235	0xbe553c56	-0.20823798
236	0xbe41413b	-0.1887254
237	0xbeac339b	-0.33633122
238	0xbe950876	-0.29108018
239	0x3c8dc103	0.01730395
240	0xbe98ee34	-0.29869235
241	0xbe80a617	-0.25126716
242	0xbe7db866	-0.24777374
243	0xbdca3182	-0.09872724
244	0x3cae4bdf	0.021276413
245	0xbea1e7fa	-0.31622297
246	0xbe382ace	-0.17985079
247	0xbe738732	-0.23782042
248	0x3c83f920	0.016110003
249	0x3e1ac6e0	0.15114927
250	0xbd94285b	-0.0723426
251	0x3be75fb4	0.0070609692
252	0xbca02fd7	-0.019554062
253	0xbc9037a1	-0.01760465
254	0x3dfd3732	0.12364043
255	0xbe3bb7fa	-0.183319

conv2.bias f4 [20]
0	0xbed80f6c	-0.42199266
1	0xbf215a66	-0.6302856
2	0x3e5761c4	0.21033388
3	0xbef7668e	-0.4832043
4	0xbf09e98b	-0.53871983
5	0xbf435128	-0.7629571
6	0xbef17846	-0.47162074
7	0xbe9bc4ed	-0.3042368
8	0xbebc7f03	-0.36815652
9	0xbef5873b	-0.47954735
10	0xbe9f1ec8	-0.31078172
11	0xbec880ba	-0.3916071
12	0xbf26b0a6	-0.65113294
13	0xbdd4c8ba	-0.10389848
14	0xbe6bbd67	-0.2302147
15	0xbc80216c	-0.015640937
16	0xbf77383a	-0.9657017
17	0xbf6c2001	-0.92236334
18	0xbf194d57	-0.59883636
19	0xbdc98e23	-0.098415636

bn2.weight f4 [20]
0	0x3ec110ce	0.37708133
1	0x3f00376e	0.5008458
2	0x3f245957	0.6419882
3	0x3f1fabfe	0.62371814
4	0x3f0f7955	0.56044513
5	0x3f619c0c	0.88128734
6	0x3f2d3a11	0.6766673
7	0x3eecab7a	0.46224576
8	0x3edf98da	0.43671304
9	0x3f2665ad	0.64998895
10	0x3eed54e1	0.4635382
11	0x3f1cf7d1	0.6131564
12	0x3f12b639	0.573093
13	0x3f4860ff	0.78273004
14	0x3e3dabd1	0.18522574
15	0x3eadad69	0.33921364
16	0x3f29c9bf	0.66323465
17	0x3eff3d2b	0.49851355
18	0x3f0eb3f8	0.5574336
19	0x3ee136e2	0.43987185

bn2.bias f4 [20]
0	0x3cd938a9	0.026516275
1	0x3cdd62e3	0.027024692
2	0x3d8a17e5	0.06742839
3	0x3d4d6523	0.05014528
4	0x3d74963c	0.059713587
5	0x3e0c7b56	0.13718924
6	0x3dc08816	0.09400956
7	0x3b843648	0.004034791
8	0x3c4cba04	0.012495521
9	0x3d8002a3	0.06250503
10	0xbbd52c88	-0.0065055527
11	0x3d7ff493	0.062489104
12	0xbb76eb52	-0.0037676883
13	0x3c6efd7a	0.014586801
14	0x3b40ff1b	0.002944893
15	0x3c8e9916	0.017406981
16	0x3e1cdc9c	0.15318531
17	0x3dab14c8	0.08353573
18	0x3d17174a	0.036887445
19	0x3d5c1b09	0.05373672

bn2.running_mean f4 [20]
0	0x40a8d033	5.275415
1	0x3f59ad62	0.85030186
2	0x41464209	12.391122
3	0x411faafe	9.979246
4	0x3fbd6a4c	1.4798064
5	0x3f4e1ce7	0.8051285
6	0x414337ff	12.201171
7	0x40ce8c6b	6.454641
8	0x3f5824d9	0.84431225
9	0x402fba6a	2.7457528
10	0x4082d781	4.0888066
11	0x41026318	8.149193
12	0x3fd29270	1.6450939
13	0x3fd8bb58	1.6932173
14	0x40d590a1	6.673905
15	0x41024bce	8.143507
16	0x40a6e3c0	5.2153015
17	0x3f2508c1	0.6446648
18	0x40fb1ff8	7.8476524
19	0xbf596c5e	-0.8493098

bn2.running_var f4 [20]
0	0x41edb32f	29.712492
1	0x41902a92	18.020786
2	0x42bc3f44	94.123566
3	0x42be571d	95.17014
4	0x41e404d2	28.502354
5	0x41e80283	29.001226
6	0x43020351	130.01295
7	0x424d2f28	51.29605
8	0x41785daa	15.522867
9	0x4220c238	40.189667
10	0x421d83d1	39.378727
11	0x42aa4206	85.12895
12	0x420f5fe3	35.84364
13	0x41c4e052	24.609531
14	0x42150309	37.252964
15	0x420ddc23	35.464977
16	0x429c6109	78.18952
17	0x41b509be	22.629757
18	0x42aebc65	87.36796
19	0x40b54ac9	5.665379

fc1.weight f4 [50, 320]
0	0xbe1b3d4d	-0.15160103
1	0xbd49aefc	-0.049239144
2	0xbce71767	-0.028209401
3	0x3e78ec26	0.24308833
4	0x3e5b8688	0.21438038
5	0xbd917fe3	-0.071044706
6	0xbe06e6a0	-0.13173914
7	0x3dcd9eec	0.100400776
8	0x3e9ac802	0.3023072
9	0x3e859e0e	0.2609715
10	0xbd1ece6b	-0.038771074
11	0xbdc166f4	-0.09443465
12	0x3efb6c02	0.4910584
13	0x3ded809f	0.11596798
14	0x3d0ad24d	0.033891965
15	0x3dd0c176	0.1019315
16	0xbe2f2101	-0.17102434
17	0xbe30a1dc	-0.17249244
18	0x3d0b5b27	0.034022477
19	0x3e022f45	0.12713344
20	0xbee5be05	-0.44871536
21	0xbd1a86dc	-0.03772627
22	0x3c5f0de2	0.01361415
23	0xbd6d590e	-0.057946257
24	0x3e1debce	0.15421984
25	0x3ccabd20	0.024748385
26	0x3df84a19	0.12123508
27	0x3e2ca9ec	0.16861695
28	0xbe8ae200	-0.2712555
29	0xbea57d75	-0.3232228
30	0xbd9eec7a	-0.07759948
31	0x3da69307	0.08133512
32	0xbe28ea2b	-0.16495578
33	0xbe44a523	-0.1920362
34	0xbe4688f6	-0.19388184
35	0x3bab99a7	0.0052368226
36	0xbe9cafdc	-0.3060292
37	0xbc23547d	-0.009968874
38	0xbd1f71d6	-0.03892692
39	0xbcadc8a3	-0.021213835
40	0x3e659c3a	0.22422877
41	0xbeaa467f	-0.3325691
42	0xbe914b6a	-0.2837785
43	0xbe0cd9d7	-0.13754974
44	0xbe1432eb	-0.14472549
45	0xbe793dcc	-0.2433998
46	0x3d8ed7b0	0.06974733
47	0x3dab1a87	0.08354669
48	0xbe0785c6	-0.13234624
49	0xbe3758cc	-0.17904967
50	0xbe251350	-0.16120648
51	0x3e0481d5	0.12940152
52	0x3d8aed8c	0.0678359
53	0x3e957c63	0.29196462
54	0xbd3edc12	-0.046596594
55	0x3ebd95ab	0.3702825
56	0x3df2d892	0.11857714
57	0xbedbeeb9	-0.42955568
58	0xbea1ba3a	-0.31587392
59	0xbe2c9e3b	-0.16857235
60	0x3d8daf70	0.06918228
61	0xbecea33a	-0.40358907
62	0xbeb7d0e2	-0.35901552
63	0xbeb706ec	-0.35747468
64	0xbddb5d80	-0.10711193
65	0xbe24f3e3	-0.1610866
66	0xbc58ddcf	-0.013236477
67	0x3e04f3ba	0.129836
68	0xbe72dcac	-0.23716992
69	0x3dfefe4a	0.124508455
70	0x3d21794a	0.03942231
71	0x3dd27b27	0.10277396
72	0xbd6720f5	-0.056427915
73	0x3d4c3372	0.04985375
74	0x3c2ad254	0.010426123
75	0x3dbfb8f7	0.09361451
76	0x3e0638a1	0.1310754
77	0x3debd9e7	0.11516171
78	0x3e90446b	0.281772
79	0xbe2b0ef2	-0.1670492
80	0x3df2db39	0.1185822
81	0x3e4580ad	0.19287367
82	0xbdfe5050	-0.12417662
83	0xbdb426eb	-0.087964855
84	0xbece94d3	-0.4034792
85	0xbeb2c670	-0.3491702
86	0xbcd67a71	-0.026181431
87	0xbca478f8	-0.020077214
88	0xbebf6b59	-0.37386587
89	0xbf19d356	-0.600881
90	0xbe610ef2	-0.21978357
91	0xbe691749	-0.22762789
92	0xbf27ca1c	-0.6554277
93	0xbe957c5a	-0.29196435
94	0x3cf67612	0.030085597
95	0xbe4b7e7d	-0.1987247
96	0xbe974a33	-0.29548797
97	0xbcd0230a	-0.025407333
98	0xbce63478	-0.02810119
99	0x3ea02dd8	0.31284976
100	0x3e218345	0.15772732
101	0xbeadedca	-0.3397048
102	0xbf27cfb1	-0.65551287
103	0xbdcedf93	-0.10101237
104	0xbd86f02c	-0.06588778
105	0xbeb34aca	-0.35017997
106	0xbe8317ac	-0.25603998
107	0xbe8a9eb3	-0.27074203
108	0xbdaa82a5	-0.083257
109	0xbeaed7d0	-0.34149027
110	0xbf286177	-0.6577372
111	0xbf3d9e81	-0.7406998
112	0xbd39cee2	-0.045363314
113	0xbea81938	-0.3283174
114	0xbd8f12d9	-0.06986017
115	0x3dde5775	0.10856525
116	0xbe241631	-0.1602409
117	0x3e4f39b9	0.20236863
118	0x3e24513d	0.16046615
119	0xb92b08b0	-0.00016311067
120	0x3e51d5f1	0.20491768
121	0x3e829249	0.25502232
122	0xbe89da88	-0.2692454
123	0x3da3bbef	0.0799483
124	0x3de7efda	0.11325045
125	0xbdec847c	-0.11548707
126	0xbd01a39a	-0.031650163
127	0x3da7f397	0.08200758
128	0x3e3813df	0.1797633
129	0x3d867f6e	0.06567274
130	0xbe0c47cc	-0.13699263
131	0xbe97e500	-0.296669
132	0x3d50b288	0.05095151
133	0x3e0e113c	0.13873762
134	0x3cff6e6c	0.031180583
135	0x3deb58fa	0.1149158
136	0x3e3de9b5	0.18546183
137	0x3d47415b	0.048646312
138	0x3d9243ed	0.07141862
139	0x3ebb1adc	0.3654393
140	0xbc3615cf	-0.011113598
141	0x3ca5130e	0.020150688
142	0xbe1bf184	-0.1522885
143	0xbdec5d4d	-0.11541233
144	0x3dcdab7d	0.100424744
145	0xbe3073df	-0.17231701
146	0xbc82b9c1	-0.015957715
147	0xbe382526	-0.17982921
148	0x3e382523	0.17982917
149	0x3ea07773	0.31341133
150	0x3e944707	0.2896044
151	0x3d72f16a	0.05931226
152	0x3d6c9f45	0.05776908
153	0x3dd57e14	0.10424438
154	0x3e21a194	0.15784293
155	0x3e415a70	0.18882155
156	0x3e1b5182	0.15167812
157	0x3df2cf96	0.11856
158	0x3e927011	0.28601125
159	0xbd72461c	-0.059148893
160	0x3da9eef8	0.08297533
161	0x3ec65bae	0.3874182
162	0xbb71fc19	-0.0036923944
163	0x3d70f5e9	0.05882827
164	0x3de82d51	0.113367684
165	0x3dba211a	0.09088345
166	0xbbc3164e	-0.0059535867
167	0x3d14902a	0.036270298
168	0x3e9f93d6	0.31167477
169	0x3e8880c8	0.26660752
170	0x3e93aa27	0.28840753
171	0xbd142af1	-0.036173765
172	0x3e4a5adb	0.19761221
173	0x3effaf6e	0.4993853
174	0x3e9988da	0.29987222
175	0x3e194561	0.14967872
176	0xbc25a344	-0.010109726
177	0xbe9722e2	-0.295188
178	0xbe6f16f1	-0.23348595
179	0x3d7bf513	0.061513018
180	0xbe24c1a5	-0.16089495
181	0x3d78bba9	0.06072584
182	0x3e3a667e	0.1820316
183	0xbd13c9b6	-0.03608104
184	0x3edf2b0b	0.43587527
185	0x3eac7f6a	0.3369096
186	0xbd868e7a	-0.06570144
187	0x3e21744d	0.15767021
188	0x3f073512	0.52815354
189	0x3e8b9b0f	0.27266738
190	0x3dd65650	0.104656816
191	0x3edc6b10	0.43050432
192	0xbeced009	-0.40393093
193	0xbe1a03b3	-0.15040474
194	0xbdedbdd5	-0.11608473
195	0x3e21304d	0.15741082
196	0xbeae1e38	-0.3400743
197	0x3e16e3a9	0.14735283
198	0x3d9ba3d5	0.07599608
199	0xbdc7a84c	-0.09748897
200	0xbd973212	-0.07382597
201	0xbdb85583	-0.09000685
202	0xbe82e357	-0.25564072
203	0xbe14b0ee	-0.14520618
204	0xbe906819	-0.2820442
205	0xbdb4be98	-0.088254154
206	0xbd208a64	-0.03919448
207	0x3cc67b5d	0.024228746
208	0x3e559880	0.20858955
209	0x3e1e6046	0.15466413
210	0xbd651fd4	-0.055938557
211	0x3c365bfe	0.011130331
212	0x3ec594b9	0.3859003
213	0x3e11b9c4	0.1423102
214	0x3ea72a80	0.32649612
215	0x3e2f00c0	0.1709013
216	0x3ee123b9	0.43972567
217	0x3f09e4a1	0.53864485
218	0x3e82c1a2	0.25538355
219	0x3edb2c27	0.42807123
220	0x3e89f989	0.26948193
221	0x3e41c1d9	0.18921603
222	0x3d1d3c92	0.038387842
223	0x3e90c830	0.2827773
224	0x3d2c35a5	0.042043347
225	0xbd8b9032	-0.068146124
226	0xbd479d6b	-0.04873411
227	0x3eb011ce	0.34388584
228	0xbc138905	-0.009004836
229	0xbe2935f8	-0.16524494
230	0xbe79d54b	-0.24397771
231	0xbd863079	-0.06552214
232	0xbd80578b	-0.062666975
233	0xbcc0c4d6	-0.023531359
234	0xbd03c794	-0.032172754
235	0xbe5c2375	-0.21497901
236	0x3e63512d	0.22198935
237	0xbcb65124	-0.022255488
238	0xbf1989fa	-0.5997616
239	0xbe5f4410	-0.21803308
240	0x3c9f8a89	0.019475238
241	0xbd4afd93	-0.049558233
242	0xbe7b052f	-0.24513696
243	0xbe0d0271	-0.13770463
244	0xbd72ba59	-0.059259746
245	0xbe57d972	-0.21079043
246	0xbe45c362	-0.19312814
247	0x3e4d54a9	0.20051827
248	0x3e866aad	0.26253262
249	0x3e1fbe18	0.15599859
250	0xbdf16980	-0.11787701
251	0x3e59bc54	0.21263248
252	0x3eb28589	0.34867504
253	0x3ba0f9b8	0.0049125813
254	0xbe9dd41a	-0.30825883
255	0xbe218081	-0.15771677

fc1.bias f4 [50]
0	0xbe4ddef6	-0.20104584
1	0x3d1e5f4b	0.038665097
2	0xbdef50cc	-0.11685333
3	0xbe28150a	-0.16414276
4	0x3c0f7a8d	0.008757246
5	0xbd360138	-0.044434756
6	0xbd0eeda5	-0.034894604
7	0xbe56d01a	-0.20977822
8	0xbd7fe3f0	-0.062473238
9	0x3d11e50d	0.03561883
10	0xbe7113e4	-0.23542744
11	0xbce6c573	-0.028170323
12	0xbd44b5b9	-0.048024867
13	0xbe33f65f	-0.17574452
14	0xbe4b2aaf	-0.19840501
15	0xbe3cd868	-0.18441927
16	0xbde7fdb0	-0.11327684
17	0xbe052957	-0.13004051
18	0xbd86a761	-0.06574894
19	0xbe844294	-0.25832045
20	0xbe2e6e40	-0.17034245
21	0xbe4c9a81	-0.19980814
22	0xbe3f25a0	-0.18666697
23	0x3c0ca87e	0.008585094
24	0x3ad8c748	0.0016538883
25	0xbde7cbbe	-0.113181576
26	0xbe88b69f	-0.2670183
27	0x3dbac137	0.09118884
28	0xbe8d37f5	-0.27581754
29	0xbe1f22d2	-0.15540627
30	0xbdf512cc	-0.11966476
31	0xbe9625e2	-0.29325777
32	0xbe50b6ba	-0.20382205
33	0xbea8c6ac	-0.32964075
34	0xbdd5a289	-0.10431392
35	0xbd94a826	-0.07258634
36	0xbe366245	-0.17810924
37	0xbe0c06d1	-0.13674475
38	0xbe0b9ca3	-0.13633971
39	0xbe150d43	-0.1455584
40	0x3b957aef	0.004561774
41	0xbcb52e0c	-0.022116683
42	0xbe040907	-0.12894069
43	0xbe85ec52	-0.2615686
44	0xbe1db8f9	-0.15402593
45	0xbca2977a	-0.01984762
46	0xbe447a98	-0.19187391
47	0xbe31e7de	-0.17373607
48	0xbe0c33d6	-0.13691649
49	0xbda36400	-0.07978058

fc2.weight f4 [10, 50]
0	0x3e61c4ae	0.22047684
1	0xbdc0ce64	-0.09414366
2	0x3bbf47ec	0.005837431
3	0xbce6c24d	-0.028168822
4	0xbea64b02	-0.324791
5	0x3dc10491	0.09424699
6	0xbe981176	-0.29700822
7	0x3c818920	0.015812457
8	0xbe50eb65	-0.20402296
9	0xbe2badda	-0.16765538
10	0xbe1510dc	-0.14557213
11	0xbc622ef0	-0.013805136
12	0x3d7d9456	0.061909042
13	0x3e088bff	0.13334654
14	0x3e9aca0c	0.30232275
15	0x3e329cce	0.17442629
16	0x3d419bc0	0.047267675
17	0x3e4934ab	0.19648997
18	0x3a849102	0.0010114016
19	0x3da20a07	0.07912069
20	0xbea64d66	-0.32480925
21	0x3d2b1503	0.041768085
22	0xbcd1ea7c	-0.025624506
23	0xbde36b32	-0.1110443
24	0x3d6f8bf4	0.05848308
25	0xbec4d9bb	-0.38447365
26	0xbd58e830	-0.052955806
27	0xbde60603	-0.112316154
28	0x3d2136a5	0.039358754
29	0x3d592479	0.0530133
30	0xbdf17180	-0.117892265
31	0x3e5b1bf8	0.21397388
32	0x3e7c54fb	0.24641792
33	0x3d77b658	0.06047663
34	0xbeba949c	-0.36441505
35	0x3dd87727	0.105696015
36	0xbdb2147b	-0.086953126
37	0x3e04cc32	0.1296852
38	0xbcaafcba	-0.020872463
39	0xbe0df4c0	-0.13862896
40	0xbe72e44b	-0.237199
41	0xbeb2375e	-0.34807867
42	0x3e546195	0.2074035
43	0xbdd33b17	-0.10314005
44	0x3e53b383	0.20673947
45	0x3e4074e9	0.18794598
46	0xbdbd0d6d	-0.092310764
47	0x3d525e42	0.051359423
48	0x3d51be6d	0.051206995
49	0x3e0211cc	0.12702101
50	0x3eb664ef	0.3562388
51	0x3da49c43	0.08037617
52	0x3cec910c	0.028877757
53	0x3e8a685e	0.2703275
54	0x3e64dfe9	0.2235104
55	0x3e7f702b	0.24945132
56	0xbe64d8c8	-0.2234832
57	0xbd353eb2	-0.044249244
58	0x3d653c1e	0.055965535
59	0xbdee9fb0	-0.11651552
60	0x3e099d5d	0.13438936
61	0x3e53f0ab	0.20697276
62	0x3d08bf03	0.033385288
63	0xbe491ead	-0.19640608
64	0xbdb28110	-0.08716023
65	0xbee6fdf0	-0.45115614
66	0x3db82588	0.089915335
67	0xbd457013	-0.048202585
68	0xbd98ee4a	-0.07467325
69	0xbe1ba56c	-0.15199822
70	0xbe4e97be	-0.20175073
71	0x3de8be3c	0.11364409
72	0x3e213f37	0.15746771
73	0x3d7e9bfb	0.062160473
74	0x3e5c054f	0.214864
75	0xbeafd336	-0.3434083
76	0xbec365fb	-0.38163742
77	0x3e839d8d	0.2570614
78	0x3b9f8c34	0.0048690084
79	0x3e065c37	0.13121115
80	0x3e0d2dc4	0.1378699
81	0x3e91d045	0.2847921
82	0xbe5e0403	-0.21681218
83	0xbe8cf469	-0.2753022
84	0x3e84dfbe	0.25951952
85	0xbd1082b7	-0.03528091
86	0xbe0e144b	-0.13874929
87	0x3d0a27d5	0.033729393
88	0xbd938336	-0.07202761
89	0x3e2728a9	0.16324104
90	0xbdc892f3	-0.09793653
91	0x3e289105	0.1646157
92	0xbe198bdd	-0.1499476
93	0xbdcf00c9	-0.10107572
94	0x3e58b541	0.21162893
95	0x3d3c98f6	0.046044312
96	0xbdef0bce	-0.116721734
97	0x3dcab1e0	0.09897208
98	0xbdcaf8ca	-0.09910734
99	0x3e164a1e	0.14676711
100	0xbec11b08	-0.37715936
101	0xbd95deeb	-0.07317909
102	0xbe1ea856	-0.15493903
103	0xbdd62435	-0.10456125
104	0xbd623c86	-0.0552335
105	0x3e23c8c1	0.1599455
106	0x3e62db22	0.22153905
107	0xbdfed1ca	-0.12442358
108	0x3e56fa31	0.20993878
109	0x3d8c432d	0.0684875
110	0x3d8e475a	0.06947203
111	0x3e6dd1e7	0.23224603
112	0x3e4c8208	0.19971478
113	0x3ecd66f2	0.40117604
114	0xbda325d5	-0.079662
115	0x3cec7f13	0.028869187
116	0xbe3ef006	-0.18646249
117	0xbc049a8a	-0.008093486
118	0xbdbf6430	-0.09345281
119	0xbca7edd8	-0.020499155
120	0xbe1a9bcc	-0.15098494
121	0x3d2ce6df	0.042212363
122	0xbd2ae7e5	-0.041725058
123	0xbded3d8e	-0.11584006
124	0xbe42a914	-0.1900981
125	0xbdca134b	-0.09866961
126	0xbdc3b705	-0.095563926
127	0x3dca13ec	0.09867081
128	0xbe7bb467	-0.24580537
129	0x3d52aab3	0.051432323
130	0xbe07f759	-0.1327795
131	0x3e1356d0	0.14388585
132	0xbd936183	-0.07196333
133	0xbd4d36db	-0.050101142
134	0x3cf23788	0.029567495
135	0x3e4691d3	0.19391565
136	0x3e085bd5	0.13316281
137	0xbe1a5a98	-0.15073621
138	0x3e5b8626	0.21437892
139	0x3b4f9b28	0.0031678174
140	0x3e33e347	0.17567168
141	0x3e089d75	0.13341315
142	0xbe77f526	-0.2421461
143	0xbbd7babb	-0.0065835393
144	0x3e11ed6b	0.14250724
145	0x3de899fd	0.11357496
146	0x3e06a058	0.13147104
147	0x3ce52186	0.027970087
148	0xbdafb899	-0.08580131
149	0x3e2a82ec	0.16651505
150	0xbdfc9c20	-0.12334466
151	0x3dab700f	0.08370983
152	0x3d3c5f9f	0.04598963
153	0xbe557f31	-0.20849301
154	0xbda69f8e	-0.081359014
155	0xbbf6fdb2	-0.007537567
156	0xbce2ac57	-0.027670069
157	0x3e02dc73	0.12779407
158	0x3d15383c	0.036430582
159	0xbdbd1d84	-0.09234145
160	0xbe722a75	-0.23649009
161	0x3e340c66	0.17582855
162	0xbd43bc1d	-0.04778682
163	0xbe72fcbe	-0.23729226
164	0xbd3c4189	-0.045960937
165	0xbe5734f4	-0.21016294
166	0xbe3a684d	-0.1820385
167	0xbdbd338e	-0.09238349
168	0xbe0fcb9f	-0.14042519
169	0x3e197fe7	0.14990197
170	0x3e020955	0.12698872
171	0x3e350aca	0.17679897
172	0x3d047522	0.03233827
173	0x3ded5bfe	0.11589812
174	0xbdbcded7	-0.09222191
175	0xbe9ed150	-0.31019068
176	0x3df57929	0.11986
177	0xbe7a08d7	-0.24417435
178	0x3e2f19f2	0.17099741
179	0xbe95b4a5	-0.29239383
180	0xbeb88db5	-0.36045614
181	0xbcdb6c50	-0.026785046
182	0xbdf3b036	-0.11898844
183	0x3e609ca8	0.2193476
184	0x3e3405f9	0.17580403
185	0x3d2a3ab1	0.04155988
186	0x3d9024a5	0.070382394
187	0x3bbf8872	0.005845123
188	0xbe88f273	-0.26747474
189	0x3dc55b25	0.09636525
190	0xbda8f4d4	-0.08249822
191	0x3e58697d	0.2113399
192	0xbe178e66	-0.14800414
193	0x3d9d5361	0.07681919
194	0xbe564e45	-0.20928295
195	0xbe2f0963	-0.17093424
196	0xbdd90e31	-0.1059841
197	0xbe1725d4	-0.14760524
198	0xbd33f489	-0.04393438
199	0x3e5ccb10	0.21561837
200	0xbe2ab6fb	-0.16671364
201	0x3dd2a118	0.102846324
202	0x3ddf3655	0.10899035
203	0x3e6566c5	0.22402485
204	0x3deb359a	0.11484833
205	0x3e6228c6	0.22085866
206	0x3d8fe398	0.07025832
207	0x3c418942	0.01181251
208	0xbe17fa05	-0.14841469
209	0xbcac009e	-0.020996388
210	0x3db8462a	0.08997758
211	0x3d973be8	0.07384473
212	0x3e808433	0.2510086
213	0x3e14eda3	0.14543776
214	0x3e1a5a53	0.15073518
215	0x3e95a82b	0.29229864
216	0xbc741a9c	-0.014898922
217	0xbe681e93	-0.22667913
218	0xbb9af5c7	-0.004729006
219	0xbe9d3c47	-0.3071005
220	0xbe3e2b77	-0.18571268
221	0xbd5d8667	-0.054083254
222	0x3e680c64	0.22660977
223	0x3e7ee8a9	0.2489344
224	0x3e4edb4c	0.20200843
225	0x3e2771d0	0.1635201
226	0x3d25df05	0.04049589
227	0x3d56136b	0.052264612
228	0x3cf6d69a	0.030131627
229	0xbceaf31a	-0.028680373
230	0x3d0762ee	0.03305333
231	0xbe06011f	-0.13086365
232	0xbe225639	-0.15853204
233	0xbdf8f996	-0.1215698
234	0xbdb62177	-0.08893102
235	0xbe803776	-0.25042313
236	0x3b03a4b2	0.002008718
237	0x3e32fe4d	0.1747982
238	0x3e0edd9c	0.13951725
239	0x3e6872d4	0.22700053
240	0x3db98379	0.090582795
241	0x3d0b902c	0.03407304
242	0xbe60aea6	-0.21941623
243	0xbcfd0276	-0.030884963
244	0xbe428323	-0.18995337
245	0x3e0abf14	0.13549453
246	0xbea26bdd	-0.31722918
247	0xbe076855	-0.13223393
248	0x3e4cc8cb	0.19998471
249	0xbdfcadee	-0.12337862
250	0x3cdf8c2a	0.027288515
251	0xbe14c996	-0.14530024
252	0xbde95632	-0.113933936
253	0xbe0228a3	-0.12710814
254	0x3e32fdfe	0.17479703
255	0xbd0b7c72	-0.034054227

fc2.bias f4 [10]
0	0xbdbe65cd	-0.09296761
1	0x3df7315c	0.120699614
2	0xbd5e4536	-0.054265223
3	0xbe257b98	-0.16160429
4	0x3e0b020e	0.13575003
5	0x3cb0ec9f	0.021597205
6	0xbe6c92de	-0.231029
7	0x3cccc591	0.02499655
8	0x3c0ae21d	0.008476761
9	0xbe09512d	-0.13409872
